actor_ckpt.pth (torch_old, 548445 bytes, 10 tensors)

fc1.weight f4 [400, 33]
00000000: 3233 a7be d44c fbbe 7f9e 62bf 5868 1e3e
00000010: bcdc 5f3f 9427 c5be d9bb 4d3f eda6 4fbf
00000020: f2eb a63e 0be0 b0bd f404 3dbf 54c6 a8be
00000030: 0105 833e b0c2 883e 9b14 603e 7baa 11bf
00000040: 28a7 c9bf 836a c1be cf19 223f 8a7a 78bf
00000050: 7fff 323e 3dee 0d3f ad67 0dbf 5da9 063f
00000060: ac88 d6be c846 4cbf 19af 8ebd 7284 2dbd
00000070: d693 683e a076 28bb 301e fcbc 82c2 863c
00000080: d530 023f a587 263f 5cf9 42bf 58a9 c13e
00000090: 8206 d2be 18d4 a2bf ec72 4a40 6a4a 93bf
000000a0: 22fa 87be 7682 e63e 073c ca3e c37a 4f3e
000000b0: db65 6b3e 44ec 33be 14b4 90be 4857 973f
000000c0: ec00 1f3f 1299 acbd 6bb1 b2bf 0500 1abf
000000d0: 8b7f bfbc 7e27 aa3d 9863 453e ee49 0a3e
000000e0: 958e 0c3b 63f2 d63e 1805 d33d 4ce9 30be
000000f0: 4857 59bc d3e9 d0bd c257 ed3c 0e1c 02bb
00000100: adfa a0bc 69e5 393f ebfb 40bc 8d37 ed3b
00000110: 5852 0dbd 4f0d ca3e 361c b83e 68b8 efbf
00000120: 3977 4b3f 9455 243e 82ec f7bd 8b9d 843e
00000130: 7d70 aa3e dd71 80be 380a 7e3f f8ca b4be
00000140: c73e 47be 117a 4d3f 268d efbe baff 2e3f
00000150: 96b7 66be 29a8 a2be 213d 403e 6431 c1bd
00000160: 5da6 de3e ee31 083e 85df fabe f1fa 25bf
00000170: 9185 f03e 6a19 e2bc 9353 fc3e 0d64 acbc
00000180: 1758 abb9 d3c6 f5bc 45d8 c23d ad0e 723f
00000190: 202a f83e 9740 93bf 4e80 39be 9f00 203f
000001a0: 5669 2fbf ac7c 253f 8377 c0be 5d03 90be
000001b0: ade2 af3e bd6d 5d3f 509d 773e 4fe8 17bf
000001c0: acb6 85bf efa5 523e 057a 653e ca3b 1fbe
000001d0: d05f a93f e3e9 6b3e dbe5 003f cf3c a03e
000001e0: 51dd 373f ce12 113e a7ab a3be 3110 40bd
000001f0: 50e2 d33e 38ad 503e c3a6 dabc 4171 bebd
00000200: 5370 b1bc b6fb f33c a29e 19bd fb65 b6bf
00000210: a06b 04bf d758 533c d196 c6be 2491 5a3e
00000220: a0f4 86bf 87bc bd3f 0f7d 8abe 48f9 33be
00000230: 6115 a73f 3aee 1cbe 7229 aabf 9984 36be
00000240: b8d8 7bbf f1af 113f 56e4 583e 98ea 8a3d
00000250: 454e 53bd fea0 213d 13d0 97be 4e41 0e3e
00000260: 0dad d33e 875d 043f b205 8fbd 14e1 ec3e
00000270: 0405 4f3e 3670 07bf d7e6 b43e 332b 1abd
00000280: ef82 3a3b caa7 1bbd 51b9 863b c858 123c
00000290: be57 573f 5c07 cdbd e84a afbe 2330 f7be
000002a0: 1bce be3e 5cc3 ce3c f13f 9a3e 944a 39bf
000002b0: b0b6 aebb 5526 1a3f f34e 84bf 351d 4ebf
000002c0: d615 163d d887 f5be 01d8 92be 6b00 123d
000002d0: 4155 273f 0862 78bf 42cc bf3f 231b e4bd
000002e0: 0253 dc3f 92ef ca3e 0148 7b3d ecbb 023e
000002f0: 726e a6bf 8070 903e 1ef3 7f3d 2574 5fbe
00000300: eb23 e5bc 5c75 67be 22aa 05bd f7c2 32bd
00000310: 1167 013d fa52 72bf d534 08bc 31ce 763f
00000320: 0559 e5bc 403b e03e 4e9f 2dbf f658 0d3e
00000330: 32f4 2fbf c6b4 0c3f 19f9 a6bd 62cc e8be
00000340: 6c7b a93e 9182 903e feb9 3ebf d80e 8f3d
00000350: 4e11 483f ab6e 953e 452a 93be 0839 e63e
00000360: 59a1 49bf d5dc e5be 2f36 d7be 7903 e9bd
00000370: 63e7 3ebd dcdc 6f3f 2d79 363e f0ed 2d3f
00000380: 1107 15be 9985 2dbc 69e3 073e d4f3 533c
00000390: e0f5 253d c049 25bd 231a d0bf 4526 30bf
000003a0: fda1 a6be 9e89 0c3e f496 513f 48bf 64bf
000003b0: 6656 9ebe 5054 75be 782b fdbb fbd5 5abe
000003c0: b421 03bf 9e3d 89be ed0c 0fbe 57a9 cf3d
000003d0: 4286 64be 9f75 35be 1ad0 56be 5fad adbe
000003e0: 4c9c 14bf cdff 853e d3b7 1b3f 13f8 40be
000003f0: cfe4 ea3d 3fe8 2bbe 01c2 c2be 7feb 8e3c
-0.32656246 -0.49082053 -0.88523096 0.15469491 0.8744619 -0.38506758 0.8036476 -0.81114084
0.32601887 -0.08636483 -0.7383568 -0.32963812 0.25589755 0.26711035 0.2188286 -0.5690076
-1.5754137 -0.37776574 0.6332063 -0.9706198 0.17480277 0.5544165 -0.5523632 0.5260218
-0.41901147 -0.79795504 -0.06966991 -0.042362638 0.22712645 -0.0025705472 -0.030776113 0.01645017
0.5085576 0.6505073 -0.7616174 0.37824512 -0.4102059 -1.2720976 3.1632643 -1.1507084
-0.26558024 0.4502141 0.39498922 0.20261674 0.22988074 -0.17570597 -0.2826239 1.1823511
0.6211078 -0.08427633 -1.3960394 -0.6015628 -0.023376247 0.08308314 0.19276273 0.13504764
0.002144729 0.419818 0.10303706 -0.17276496 -0.013265438 -0.102008484 0.02897251 -0.0019853148
-0.019650782 0.7261568 -0.011778812 0.007239288 -0.034502357 0.3946328 0.35959023 -1.8728151
0.79478794 0.1604827 -0.12105657 0.25901446 0.33288947 -0.2508687 0.9923434 -0.35311103
-0.19457541 0.80264384 -0.46787375 0.6835896 -0.2253097 -0.3176892 0.18773319 -0.09433249
0.434863 0.13300297 -0.48998657 -0.6483603 0.46976903 -0.027600009 0.49282512 -0.021043802
-0.00032681294 -0.030002033 0.095139064 0.94553643 0.4846964 -1.1504086 -0.1811535 0.6250095
-0.68520105 0.6464336 -0.3759118 -0.28127566 0.34352627 0.8649557 0.24181104 -0.5933885
-1.0446372 0.20571111 0.22409828 -0.15550151 1.3232365 0.2303844 0.5035073 0.31296393
0.7182208 0.1416733 -0.31966898 -0.04689044 0.413836 0.20378578 -0.026690846 -0.09298945
-0.021660006 0.029783111 -0.0375048 -1.4249872 -0.5172672 0.012899599 -0.3878694 0.21344429
-1.0543404 1.4823159 -0.27048537 -0.17575562 1.3053399 -0.15325251 -1.3293898 -0.1782402
-0.9837756 0.5690909 0.21180853 0.067830265 -0.051588316 0.039460175 -0.29650936 0.138921
0.41342965 0.5170521 -0.06983508 0.4626547 0.20216757 -0.52905595 0.35332367 -0.037638854
0.002845939 -0.038001813 0.004111447 0.0089323 0.8411826 -0.10011169 -0.34236836 -0.48278913
0.3726662 0.025239639 0.30126908 -0.7237942 -0.0053318366 0.6021474 -1.0336593 -0.80513316
0.036641918 -0.47955203 -0.28680423 0.03564493 0.6536446 -0.97024584 1.498421 -0.111379884
1.7212832 0.39635903 0.061347965 0.12766999 -1.3002455 0.2821083 0.062487714 -0.2182165
-0.027971229 -0.22603363 -0.032632954 -0.043642964 0.031592432 -0.9465786 -0.008313377 0.96408373
-0.02799655 0.43795204 -0.67821205 0.13803467 -0.6873199 0.5496334 -0.0815298 -0.45468432
0.33101976 0.28224614 -0.7450255 0.06985253 0.78151405 0.29185995 -0.28743187 0.44965386
-0.7876182 -0.44895044 -0.42033526 -0.113776155 -0.046607386 0.9369638 0.17819662 0.6794119
-0.14553477 -0.010590934 0.13270344 0.012936551 0.040517688 -0.040353537 -1.6257976 -0.68808395
-0.32545462 0.13724372 0.8187096 -0.8935437 -0.30925292 -0.23957944 -0.007726129 -0.2137069
-0.512233 -0.26804823 -0.13969775 0.10139721 -0.2231684 -0.1772065 -0.20977822 -0.33921334
-0.5805099 0.26171723 0.6082737 -0.18844633 0.11469423 -0.16787814 -0.38038638 0.017446278

fc1.bias f4 [400]
00000000: 650a 483d 3315 1f3e d2c5 bb3d ad46 ee3c
00000010: 8c51 f1bd 0727 ee3d 07a1 0e39 235c 6c3d
00000020: a39c aabd 1c58 14be 6bf4 1ebe 98ca 56bd
00000030: 5e6e 04be 4d61 1abe e9a8 2f3e e542 8d3d
00000040: fb35 bdbc 0ddb 1dbe 0ff0 fcbd dc27 28be
00000050: 0e9d 31bd fc85 fd3d efb9 bbbc 1e83 1e3d
00000060: bb3c 54bc f81b d83d 6278 2a3e 0744 91bd
00000070: 9534 09be d212 d13d e4ee eb3d 063f 623c
00000080: 41ff 9fbd 9046 28bd 9dd4 c93d 0316 553d
00000090: 563b 78bd 5317 4b3d 66d1 5e3d d389 4cbd
000000a0: 5273 ccbd a9c0 2e3d 7675 2f3d 93e1 2c3e
000000b0: 2f00 ebbc 5e2c d23c 7ce2 1d3d 660d a03d
000000c0: db62 a73d 028b f8bd aa86 173e eccc 0b3d
000000d0: 65e9 313e bd3a 09be 72ab 1e3e 1e7e 023e
000000e0: 6032 88bd ee82 24be b061 e83c d1bc d93d
000000f0: 88f9 b5bd f537 943d c9a5 df3c 3f5e 173e
00000100: 0aaa 2d3e 0e14 a23d b94b f8bc 4383 6ebd
00000110: d15b fb3d a978 c0bd 986e 84bd 1d88 d0bd
00000120: 19bd 31be 7d76 203e 028e e43d 05ef 913d
00000130: be9d 033e 5c1d fe3d af46 f63d 8048 e8bd
00000140: dead e83d 89e7 47bc d012 2b3e 87d5 1c3e
00000150: 473d 1f3d 6728 c0bd 47d6 273e 6392 30be
00000160: 751c 99bd 30ae 533d 2fe4 a23c 7714 07be
00000170: d63e d0bd c786 0b3d 2aa5 09bd 35dd 0fbe
00000180: d5da ce3d b873 033e 4303 8abc 51a4 b43d
00000190: 7ce4 133d 22d4 c53d 4908 8e3a 2b1e 583d
000001a0: 51d7 f73d 2ea1 5dbd e41e 003e 7477 473d
000001b0: b949 10be 1ea6 0d3e 5467 8bbd d272 2ebe
000001c0: 375b 33bd 793e 30be 7102 4cbd 5f71 30bd
000001d0: 6c47 00be 793d 113e b197 de3d 2da7 b33d
000001e0: a98a 243e 8ece 90bd 1642 893d 03bb 043e
000001f0: 24ca 0e3e 9a7b 823d fc6e a33d 68fd 203e
00000200: 34ec 143e e030 0ebe 296c 123e f71b 8cbd
00000210: ad73 e73d c4cf 2dbe 5a10 1f3e 48a8 143e
00000220: a988 4bbd 89cb 223e d612 103d ad63 ebbd
00000230: 65a4 8c3d b406 e1bd 487c babd bb7c 193e
00000240: fcd6 ab3b 75d5 c1bd 95ab 2abe a28e 12bc
00000250: d97e a13c 1f12 f8bc 500b 013c c8e0 113e
00000260: 8e78 23be ae98 253d cb11 a4bc 3d07 1dbe
00000270: b830 2dbe b19c 02bc 6fce 2bbe 232c 303e
00000280: 1cc8 18be 10b8 a0bb 6b2c 88bb 3e47 d0bd
00000290: 1aa4 263e 4149 cebc 1ca2 88bd 333d 103e
000002a0: 2392 683d 1fc9 56bd 30e1 2cbe 390b 09bd
000002b0: 5f69 31bd bdb1 42bd c5f5 d33d 81d2 56bc
000002c0: 1b8b 423d bb72 113e 01ca 413b 3c05 283e
000002d0: 26b9 953d 643e 05be 30bb b23d 0087 93bd
000002e0: e5c9 0c3e 5c2e 4b3d 33d9 d7bd 0e72 d7bd
000002f0: d7fe 2fbe 686c 2abe 3856 e2bd baa0 363d
00000300: 19dd 4cbd 30d8 093d 9d49 18be ba44 5bba
00000310: b84d a8bd 58f6 393d 4265 f7bd 3917 ab3d
00000320: 14b4 94bd 1f8b 9d3c 7052 97bd 78b6 173e
00000330: 8a7c 873c 8df7 ac3d 45a9 8cbd d7d1 0e3e
00000340: 12e7 83bd e2e9 e23d ede6 2a3e 0b7e b3bd
00000350: 8767 213d 8888 103d 78b9 3eba 0c3e 9a3d
00000360: 48ad 1d3e 252d a4ba e34d 2e3d 606f dd3d
00000370: 5389 12be db45 d23d 9964 b03b b27f 01be
00000380: 0d63 923d 388a a3bd e50f 03be ef55 68bd
00000390: 8cc0 b83c 1182 cd3d c988 9dbd 045b 153e
000003a0: 963f fdbd ab42 02be 7253 8c3d 7293 273e
000003b0: cadd 063e c895 003e b1db 2c3c e063 7dbd
000003c0: 1b59 04be 5732 febd 9ef1 5c3d 7646 48bc
000003d0: 3137 e4bc 3ffb 07bd 63d0 9bb9 13da d0bd
000003e0: d4d6 21bd 2837 123e e262 bdbd 8f1b 53bc
000003f0: cecb 0cbe f306 8fbd 2c2c 713d 0767 9a3d
0.048838038 0.1553543 0.091685906 0.029086435 -0.11783132 0.116285376 0.00013602163 0.057705056
-0.08330657 -0.14486736 -0.15522926 -0.052439302 -0.12932727 -0.1507618 0.17154278 0.06897525
-0.023097029 -0.15415592 -0.12350475 -0.16421455 -0.04336267 0.12379071 -0.022915808 0.03869926
-0.012953932 0.105522096 0.16647485 -0.07093053 -0.13398965 0.10208668 0.11520174 0.013808971
-0.07812358 -0.04108292 0.09855006 0.052022945 -0.060603462 0.04958279 0.054398917 -0.049936127
-0.09982933 0.042664204 0.04283663 0.16882925 -0.028686611 0.025655922 0.03854607 0.078150555
0.08173152 -0.12135889 0.14797464 0.034130976 0.17374189 -0.13401313 0.15495089 0.12743422
-0.06650233 -0.1606557 0.028366894 0.10631717 -0.08885485 0.072372355 0.027300732 0.14782046
0.16959396 0.079139814 -0.030309545 -0.05823065 0.12273372 -0.09398014 -0.064664066 -0.101822115
-0.17357291 0.156702 0.11159898 0.071256675 0.12853143 0.124079436 0.120252006 -0.11341953
0.113612875 -0.012201198 0.16706395 0.15315829 0.038876798 -0.09382706 0.16390334 -0.17243342
-0.07476131 0.05167979 0.019884197 -0.131914 -0.10168235 0.03406408 -0.03360478 -0.14049228
0.10100333 0.12837112 -0.016847258 0.08820403 0.03610657 0.09659602 0.0010836209 0.052763145
0.12101615 -0.05410879 0.12511784 0.048697904 -0.14090623 0.138329 -0.06806818 -0.17035988
-0.04378816 -0.17211331 -0.049807016 -0.04307687 -0.12527245 0.14183606 0.108687766 0.087721206
0.1606852 -0.07070647 0.06702058 0.12961964 0.13944298 0.063712314 0.07980153 0.15721667
0.1454323 -0.13885832 0.14299072 -0.06841271 0.1130136 -0.16973788 0.15533581 0.14517319
-0.049690876 0.15897955 0.035174213 -0.11493621 0.06867293 -0.10987607 -0.09105736 0.14988987
0.005244134 -0.09464542 -0.16667016 -0.008945139 0.019713806 -0.030282078 0.007876232 0.14245903
-0.15963957 0.04042881 -0.020028016 -0.15334792 -0.16913116 -0.007971928 -0.16777967 0.17204337
-0.14920086 -0.0049047545 -0.0041556857 -0.10169838 0.16273537 -0.025181415 -0.06671545 0.14085846
0.05677999 -0.052437898 -0.16882777 -0.03345797 -0.04331338 -0.047532786 0.10349611 -0.0131117115
0.047495943 0.14203922 0.0029569867 0.16408247 0.07310705 -0.13012081 0.087271094 -0.072034836
0.13748892 0.04960476 -0.10539474 -0.10519801 -0.17187057 -0.16642916 -0.11051601 0.044586875
-0.050015543 0.033653438 -0.14871831 -0.0008364428 -0.08217949 0.045400947 -0.1207986 0.08354039
-0.0726091 0.019231377 -0.073887706 0.148157 0.016538877 0.08445654 -0.06868223 0.13947235
-0.064405575 0.11079766 0.16689654 -0.08764275 0.039405372 0.035286456 -0.0007275562 0.07531366
0.15398133 -0.0012525661 0.042554747 0.10812259 -0.14310198 0.1026723 0.005383086 -0.12646368
0.07147799 -0.079853475 -0.12799032 -0.056722578 0.022552751 0.10034574 -0.07692105 0.14585501
-0.12365644 -0.12720744 0.068518534 0.1636484 0.13170543 0.12557137 0.010550425 -0.061862826
-0.12924616 -0.12411945 0.05394136 -0.01222383 -0.027858349 -0.03319859 -0.00029719164 -0.10197844
-0.039511517 0.14278853 -0.09247376 -0.012884988 -0.1374962 -0.06983747 0.058880016 0.07539182

bn1.weight f4 [400]
00000000: bcb2 4e3f 6797 4a3f fa24 853f bde2 2f3f
00000010: 04da 093f 9a5b 603f b777 693f 381f 6e3f
00000020: 5b27 583f b3f7 fb3e a6f9 863f 5510 123f
00000030: 81df 6e3f cecf 8b3f 2a07 393f 9ec1 883f
00000040: c310 8e3f 0b60 6d3f a6b0 b23f 82f8 443f
00000050: 0754 673f 2a01 273f 5896 553f 67a1 313f
00000060: a27d 823f 7c66 0f3f 20b4 b73f b626 763f
00000070: 05d0 333f ae0a 773f 90df 793f ced2 8e3f
00000080: 5b57 7a3f b9b3 513f 1db3 a13f a61d 8f3f
00000090: 8fad 173f 5a2f 9c3f 3f7f 1f40 4e87 843f
000000a0: 9f9b a63f 1889 883f 6803 433f 3b91 613f
000000b0: c06c ab3f 843c 393f ff41 8a3f 67d8 6d3f
000000c0: 24b7 4a3f 8419 623f 0708 9c3f 17e1 6a3f
000000d0: 9be7 763f 9572 1240 38bf 8a3f 1beb 4c3f
000000e0: 4a45 873f d4b7 623f 895a 033f da27 5e3f
000000f0: 05b1 863f 2c1a 733f 184d 9a3f a8fe 683f
00000100: 5f50 323f 76d0 263f 004b 313f acec 7e3f
00000110: a5bd 823f d9f4 393f 8a87 e53f d569 4d3f
00000120: 7b32 583f 69ee 4c3f a536 743e 5a49 643f
00000130: af8d 813f 010d 463f b94d 6d3f 7f2c 4f3f
00000140: ee6b 8e3f edf7 f13e 5a2e 823f 02c7 af3f
00000150: 1da9 3b3f ed76 893f 91d9 fb3e f7f3 143f
00000160: cb89 983f c587 743f 15c9 233f 7bda e93e
00000170: c6b5 873f 966d 4640 b818 893f 8f47 913f
00000180: e958 4b3f 0dc1 3b3f b4ba 8f3f 9ad0 2b3f
00000190: 23db 623f 273c ae3f 7ba4 8a3f af7f 543f
000001a0: e25c a23f 8b69 6a3f 2bed 593f 7fc7 4c3f
000001b0: 5325 a23f 9dc4 423f a731 093f 9bfb 783f
000001c0: 56c1 0440 eb05 533f 2cdb 633f 3a89 983f
000001d0: 47ce 563f b749 593f b4f7 343f ea05 503f
000001e0: bed3 493f 908d c43f 1f39 243f d9a1 173f
000001f0: cde2 483f 4886 3d3f 1a70 403f 5353 893f
00000200: 6f4e 443f 63e2 513f 0d40 373f 3ec2 623f
00000210: c8e6 8e3f 21c1 a23f 1ea6 963f 5b22 3a3f
00000220: 4d50 473f 06f2 733f af2a c13f 26b3 923f
00000230: 98b3 463f 27d8 8a3f 99b5 c13f f6cb 383f
00000240: 9f61 443f 4dd3 4d3f bf0a a43f e762 893f
00000250: 03c9 833f 9b7b 2f3f b089 823f 3c9d 013f
00000260: 7ba4 2940 7a05 4f3f 6000 303f 886a 253f
00000270: bac2 703f 24b4 8f3f 80b3 363f 8a1e 663f
00000280: 87f5 653f cbdc 3f3f ec1f 803f f418 073f
00000290: 4a93 2d3f bd54 c23e 59d7 963f 1999 1e3f
000002a0: f3b1 283f 1d31 403f d9f4 f73e 7f05 893f
000002b0: bd8e 823f 4b0f 5d3f efb3 e03f d50b 893f
000002c0: 8327 313f c247 3e3f 3a6f 0840 df65 8b3f
000002d0: e986 403f 0eca 823f ebf7 6a3f 602d 853f
000002e0: d281 ac3f 9fb7 783f 378f eb3f 3d89 423f
000002f0: 93d9 1a40 c6d7 543f c8dd 943f 74a9 ce3f
00000300: 3f5f 8d3f 780c 693f d5e2 9f3f 59b2 393e
00000310: 8ab0 933f b65f 513f ab2d 833f a4e3 7a3f
00000320: d96f 6d3f 344e 743f be22 533f 2671 5c3f
00000330: 5662 7a3f d1cd 8c3f 7409 853f 9957 2b3f
00000340: c68b db3e 4b32 433f 1b67 353f 17f0 883f
00000350: c3ed 973f 0055 863f ab83 0a3f 5561 583f
00000360: a005 463f 7443 6d3f c723 573f d707 613f
00000370: 9615 903f 2411 923f 2968 763f 4800 6a3f
00000380: 1c20 543f c3db 543f 9bd4 733f 8952 c93f
00000390: eb7d 4f3f 5f31 4b3f b730 7e3f 7f24 7b3f
000003a0: 1efd 1e3f 4b53 613f 2b52 603f a69b 993f
000003b0: f948 833f df50 583f edac 0b3f 7ddc 553f
000003c0: 465f ea3e 3212 373f 4e65 433f 64ab 553f
000003d0: 95ab d03f 238b 503f 0cd1 4b3f d512 393f
000003e0: 012e 1b3f 8284 843f c242 3b3f d509 723f
000003f0: 8c67 7f3f 260d c23f 87e5 9e3f 9efa 463f
0.80741477 0.7913727 1.0401909 0.6870535 0.5384829 0.8763977 0.91198295 0.93016386
0.8443505 0.49212417 1.0544937 0.5705617 0.9330979 1.0922792 0.72276556 1.0684087
1.1098865 0.92724675 1.3960159 0.7694169 0.9036259 0.6523615 0.8343253 0.69386905
1.019459 0.56015754 1.4351845 0.9615282 0.7023929 0.9650067 0.97606754 1.1158082
0.97789544 0.8191486 1.2632786 1.1180923 0.59249204 1.220195 2.4921415 1.0353792
1.3016242 1.0666838 0.7617707 0.8811223 1.3392563 0.72357965 1.080139 0.9290833
0.791857 0.88320184 1.218995 0.9174971 0.9644715 2.2882435 1.0839605 0.8004624
1.056802 0.8856175 0.5131002 0.8677956 1.0522772 0.9496181 1.2054777 0.91013575
0.69653887 0.65161836 0.69255066 0.9957988 1.0214125 0.7263923 1.7931988 0.8023961
0.8445203 0.80051285 0.2384897 0.89174426 1.0121363 0.7736359 0.9269672 0.8092727
1.1126688 0.47259465 1.0170395 1.3732607 0.7330492 1.0739418 0.49189427 0.5818476
1.1917051 0.9551967 0.639787 0.456745 1.0602348 3.1004386 1.0710669 1.1349963
0.7943254 0.7334145 1.1228852 0.67115176 0.88615626 1.3612107 1.0831445 0.8300733
1.2684596 0.91567296 0.85127515 0.79991907 1.266764 0.7608126 0.5359139 0.9725892
2.0743003 0.82430905 0.89006305 1.1916878 0.83908504 0.84878105 0.70690465 0.81259024
0.7883872 1.5355701 0.6414966 0.59231335 0.7847107 0.7403302 0.75171053 1.0728554
0.7668218 0.81986064 0.7158211 0.8857764 1.1164179 1.2715188 1.1769445 0.7270867
0.77856904 0.95291173 1.5091151 1.1460922 0.7761779 1.0847214 1.5133544 0.7218622
0.7671146 0.80400544 1.281578 1.0733308 1.0295719 0.6854798 1.0198269 0.50630546
2.650664 0.8086773 0.6875057 0.6461568 0.9404713 1.122685 0.71367645 0.8989035
0.8982777 0.7494628 1.0009742 0.5277245 0.6780287 0.37955275 1.1784469 0.6195236
0.6589653 0.7507494 0.4842899 1.0704802 1.019981 0.8635146 1.7554911 1.0706736
0.69200915 0.74328244 2.1317887 1.0890464 0.75205857 1.0217912 0.9178454 1.0404472
1.3477118 0.97155184 1.8403081 0.7599066 2.4195297 0.83141744 1.1630182 1.6145463
1.1044692 0.9103465 1.2491099 0.1813444 1.153825 0.8178667 1.0248312 0.980036
0.9274879 0.9543183 0.8247489 0.8611015 0.978063 1.100031 1.039351 0.6693054
0.42880076 0.76248616 0.7086045 1.069827 1.1869434 1.049469 0.5410716 0.84523517
0.77352333 0.9268105 0.84038967 0.8790259 1.1256588 1.1411481 0.96252686 0.9140668
0.82861495 0.8314783 0.95246285 1.5728313 0.8105151 0.7937221 0.9929308 0.98102564
0.62104976 0.8801772 0.8762538 1.2000625 1.0256644 0.844984 0.5456074 0.83539563
0.45775813 0.7151214 0.76326454 0.83464646 1.6302363 0.81462306 0.79615855 0.7229436
0.6061707 1.0352938 0.7314874 0.9454625 0.99767375 1.5160263 1.2413796 0.7772616

bn1.bias f4 [400]
00000000: 3aa3 15bf 9195 16be e0af 85bf 405d 17bf
00000010: 45d8 02bf 919c babe 6aef 76bf ce0a 40bf
00000020: d0fc 19be a3e6 28bf 403a 0ebf d9aa 0ebf
00000030: 63b4 0bbf 5b9e 52bf d672 953d ceb8 0abf
00000040: 2295 42bf f180 83bf e6bc 73bf 27a2 4fbe
00000050: 16ed 6bbf 44a4 48bf e9b8 e7be 7dd1 bbbe
00000060: 0079 55bf 3d89 a8be cd1a 35bf 107f 4fbe
00000070: bdc7 febe 653a 3fbf fb47 58bf 4b53 22bf
00000080: ba74 1dbf 8087 6fbf f70e 7ebf 1aa0 cbbe
00000090: 1285 18bf 1030 6dbf 5b55 df3f 0bdd 81bf
000000a0: 2a9c 27be 954d 25bf d28d d0be 5adc 77bf
000000b0: 72db a6bf e543 74be 0368 cdbe aec6 44bf
000000c0: c4e0 c6be aa04 3bbf 1c87 2e3c 3d7e 40bf
000000d0: 9a6d 4cbf bb0b 93bf ace2 3bbf ed37 56bf
000000e0: bcdf 33bf 0bfa 41bf 5a9a 83bf 336d f5be
000000f0: 3481 39bc 0387 19bf a098 fbbe b567 36bf
00000100: 04c3 72bf 4f58 28bf ce81 52be bacb 1dbf
00000110: 1df3 2fbf d51c 3ebf f006 3dbf 52a3 31bf
00000120: e3e2 11bf 2107 43be 0989 7ebf b2af cbbe
00000130: 6b2d 48be 6b30 24bf 3c65 7dbf 550d 74bf
00000140: 8a56 2fbf 9141 c23e ae27 63bf d71f 25bf
00000150: 07b9 d2be 1d3c f1be fff8 8fbe 7ca4 f0be
00000160: 9fb4 66bf 87ae 4cbf 96b9 c23d 09bc 82be
00000170: c3a5 06bf 86d8 9bbf be9e 5cbf 7bc3 53bf
00000180: 65c0 40bf 6508 13bf 60cd 30bf 7f45 28bf
00000190: b97c 83bf 960f 8ebf 3a6e 27bf e5b3 0dbf
000001a0: f039 67bf 1fad 24bf 828c 80bf e0a5 48bf
000001b0: 12ff 63bf ac9f 88bf adc7 36bc 258a 1dbf
000001c0: 9f43 fd3e f5bd 3cbf 7c97 313e 99a4 9bbe
000001d0: e7cb 34bf e08d 30bf 434a aabf c7f7 32bf
000001e0: a2d4 31bf 8493 6f3d a89a 42bf d8ec 13bf
000001f0: 86f3 873e ac91 94bf 4149 99bf aa06 46bf
00000200: ad46 86bf 4574 64bf e719 15bf 1062 abbd
00000210: 6b4e 93be 3aad 703e 0599 36bf 10c3 14bf
00000220: 1b58 94bf d5e5 12bf c71e 49bf d5e8 4ebf
00000230: 16c7 4bbf b012 7bbc e1eb a3bf d4b2 5bbf
00000240: e811 5cbf 4351 1abd 2d93 34bf 0618 cebe
00000250: 814f aebe fc7d 2ebf bf0e 93bf f0ca 6abf
00000260: 8b3a 9c3d c49d 63bf 99f2 08be bb00 1fbf
00000270: 19ae 80bf da4a d8be d874 523c 2643 69bf
00000280: 8bde 88bf 0ead 36bf af8d 17be 77d5 93bf
00000290: d404 22bf f280 82bf 7f43 76bf de7b 14bf
000002a0: 3a21 3bbf ff94 08bf 1a08 46bf b8a7 16bf
000002b0: 4200 2bbf c21c a4bf b8ff 53bf acf6 7fbf
000002c0: 0a36 f0be 845b 55bf 1cc7 1bbf b0f5 6fbf
000002d0: 0b11 533d 0239 5fbf be8e dbbe 4764 47bf
000002e0: 012d dbbe a5bd 20bf d483 6abf b139 20bf
000002f0: e2ce 96be a7d4 11bf 13f7 3fbf 928a 8abf
00000300: f3f8 6abf a837 85bf 3e8d ccbf ae25 923f
00000310: 220d 5bbf 753f 12bf 5482 58bf 47fc 5dbf
00000320: d030 8dbf 56e5 5bbf dffb 31bf 8da8 42bf
00000330: e67a 64bf 5e2d 9ebe dd46 5ebe ce8b 18be
00000340: 18a6 42be ac05 1ebf 2d72 2ebf 3f41 59bf
00000350: 1ae9 f0be c31f bdbf b18b 67bf 2451 8bbf
00000360: 1655 0abf 64a0 36bf 8a98 0ebf a772 02bf
00000370: 04c2 68bf 7a08 3bbf d33c 56bf 30df 3bbf
00000380: 4d28 f2be 9bce 9f3f 92de 84bf b5fb 433e
00000390: 95b5 2abf 5b66 89bd 16bc 87bf cf4c 49bf
000003a0: ca4e 2fbf e1af bbbd a7d0 48bf 09d1 61bf
000003b0: 7bf3 87bf 3883 91bf 9fc2 a5bd 534e 20bf
000003c0: 8f88 1cbe 670a 7ebf 3625 e1be b899 52bf
000003d0: b996 34bf e36c 02bf 1c18 8bbf 4cf2 35bf
000003e0: 6a3b 42bf 4ee0 52bf 7348 15bf 7c14 f0be
000003f0: 7a5b 86bf 24d7 1abf 817a 4c3f e778 89bf
-0.5845219 -0.14705493 -1.0444298 -0.59126663 -0.5111125 -0.36447576 -0.96459067 -0.75016487
-0.15037847 -0.65976924 -0.5555763 -0.5572944 -0.54572123 -0.8227288 0.07297294 -0.5418824
-0.7600881 -1.0273725 -0.9521011 -0.202767 -0.9215864 -0.7837565 -0.45258263 -0.36683264
-0.83387756 -0.32917204 -0.7074402 -0.20263314 -0.49761763 -0.7469848 -0.84484833 -0.63408345
-0.61506236 -0.9356613 -0.99241585 -0.39770585 -0.5957805 -0.9265146 1.7447923 -1.0145582
-0.16368166 -0.64571506 -0.407332 -0.96820605 -1.3035719 -0.23854025 -0.40118417 -0.7686566
-0.38843358 -0.7305399 0.01065233 -0.75192624 -0.7985474 -1.1487955 -0.7339275 -0.83679086
-0.70263267 -0.7577216 -1.0281479 -0.47934875 -0.011322308 -0.59971637 -0.4913988 -0.71251994
-0.9482882 -0.6575975 -0.20557329 -0.6163899 -0.68730336 -0.74262744 -0.7383871 -0.6938983
-0.56986827 -0.19045688 -0.9942785 -0.39782482 -0.19548576 -0.6413638 -0.98982596 -0.95332843
-0.68491423 0.37940648 -0.8873242 -0.6450171 -0.4115679 -0.47116175 -0.28119656 -0.47000492
-0.90119356 -0.7995381 0.09508054 -0.25534084 -0.5259668 -1.2175453 -0.8617972 -0.82720155
-0.7529357 -0.57434684 -0.6906338 -0.6573104 -1.0272437 -1.1098506 -0.6540257 -0.5535262
-0.9032278 -0.6432666 -1.004288 -0.78378105 -0.8906108 -1.0673728 -0.011156005 -0.61538917
0.49465653 -0.7372735 0.17342943 -0.30399016 -0.7062363 -0.68966484 -1.3303913 -0.6990933
-0.69465077 0.05849029 -0.76017237 -0.5778327 0.2655298 -1.1606956 -1.197548 -0.7735392
-1.0490319 -0.89239913 -0.5824265 -0.08368313 -0.28770766 0.2350358 -0.7132724 -0.5811014
-1.1589388 -0.57381946 -0.7856259 -0.80824023 -0.79600656 -0.01532428 -1.280636 -0.85819745
-0.8596482 -0.037675153 -0.7053707 -0.40252703 -0.34045032 -0.68160987 -1.1488875 -0.9171591
0.07628354 -0.88912606 -0.13373794 -0.6211049 -1.005313 -0.42244607 0.0128452405 -0.91118085
-1.0692915 -0.7135781 -0.14800142 -1.1549519 -0.6328862 -1.0195601 -0.9619674 -0.58001506
-0.73097575 -0.5335235 -0.7735611 -0.5884967 -0.6679727 -1.2821276 -0.8281207 -0.99985766
-0.4691623 -0.83342767 -0.6085069 -0.93734264 0.051529925 -0.8719636 -0.4288234 -0.77887386
-0.42807773 -0.62789375 -0.91607404 -0.6258803 -0.29454714 -0.56965107 -0.7498638 -1.0823538
-0.91786116 -1.040761 -1.5980604 1.1417749 -0.85566914 -0.5712808 -0.84573865 -0.8671307
-1.1030521 -0.85896814 -0.6952495 -0.7603844 -0.8925003 -0.30893987 -0.2170672 -0.14897081
-0.19008672 -0.61727405 -0.6814297 -0.8486518 -0.47052842 -1.4775318 -0.9044753 -1.0884137
-0.5403608 -0.71338487 -0.55701506 -0.50956196 -0.90921044 -0.7305981 -0.8368656 -0.7338743
-0.47296372 1.2484926 -1.0380423 0.19138987 -0.6668332 -0.06708976 -1.0604274 -0.78632826
-0.684796 -0.091644056 -0.7844338 -0.8820959 -1.0621179 -1.136817 -0.08093762 -0.62619513
-0.15286468 -0.9923462 -0.43973702 -0.82265806 -0.70542485 -0.509474 -1.0866733 -0.7107284
-0.7587191 -0.8237351 -0.58313674 -0.46890628 -1.0496666 -0.6048453 0.79874426 -1.0740021

bn1.running_mean f4 [400]
00000000: b75f 0e40 9602 67c0 f04e 0ec0 bda2 48bf
00000010: 4fc7 66be e176 bfbe 02a9 40c0 9e0a b83f
00000020: b8c3 febf de66 0d3e 9244 80c0 8e88 6abd
00000030: d14b 0940 acab e8be 9c58 d13e 0a2a 97bf
00000040: 9718 f3be 0524 46c0 d6f7 873e 504a 0ac0
00000050: a59a 0ac0 e864 99bf 8be6 ddbf 3362 2dbe
00000060: d0a5 f9c0 f72e 793f 3cc6 d0bf 01c7 cebf
00000070: 2dc1 6ac0 a9d1 b6bf f860 e8bf a7e8 4fc0
00000080: 1c80 433f c320 54c0 3a60 3ebf 2968 9cc0
00000090: 1e02 31bf 75c2 a23f 1e07 bf3d 2d80 b03f
000000a0: 3643 fa3e d8cf eabf 4a4d 35c0 524d c73e
000000b0: be39 eebe f5ee 68c0 5486 21c0 e916 6ac0
000000c0: 09ac d9bd 5dae 13c0 774a a0bf f863 6b3f
000000d0: 7e72 e5bd 64aa 28bf aafb a8bf d644 3ebe
000000e0: c643 b2bf 8022 d03f f7b1 bbbf 92a2 41bf
000000f0: 21ae dabf f580 09c0 6fee 9d3f 7cff cfbf
00000100: e381 94c0 de7b ddbf 7160 e33f ff66 48c0
00000110: d637 48c0 ae28 6bbf 02c0 8ebe 2ada 853f
00000120: 142a 3040 3811 3cc0 aff6 9fbc 1a68 7640
00000130: 2a79 a9bf f883 f1bf 8363 59c0 704c 42c0
00000140: 765c 2ac0 8329 f93f 1b09 40be c0b9 3abf
00000150: bbc5 0e40 e010 d1bf d841 713f 5fd0 7ec0
00000160: 0743 53bf 3ab9 3e40 c762 183f fb30 7bbf
00000170: 33e6 70c0 25aa 1abd a89b 33c0 b7a8 89bf
00000180: 3eac 55be d506 ab3e 26d0 40bf 7f68 dbbf
00000190: eb6c a6be 4075 8dc0 3951 59bf 83b7 a6c0
000001a0: b087 09c0 ab3f a9be 901f 383f 2452 bc3f
000001b0: 26f0 dd3d bb24 0c40 096d c73f c247 2840
000001c0: e055 1abf 30b6 653f 95ea f5bf 555d 56c0
000001d0: f2a4 50bf 387e 0240 40ef c6bf 6f24 b53f
000001e0: 0454 aac0 f70c 2f3f f3e3 0940 12f7 3940
000001f0: bb87 bc3e e64d d7bf 0369 103f b769 2b3f
00000200: ddb7 a43f 0246 68be 0fec a1bf 1068 f43f
00000210: 02fe 833f 37b1 e13f 238f 22c0 c13a 503f
00000220: 833b cabf 5125 1ec0 8e8e 00bf 7277 4d40
00000230: f2d1 86bf 5c54 48be e6a6 6fbf 8482 54c0
00000240: 11a9 83c0 8761 3740 f166 31bf cf23 b4bf
00000250: c565 bdc0 7b10 4d3f 32f7 06c0 6698 a0bf
00000260: 50a0 0b3f f30d 14c0 cff9 7bbf 2ccc 19c0
00000270: 5a1d 95c0 f5a9 b33f 47be d83c e90f 83bf
00000280: 6c1b 1ec0 3819 55c0 a441 d43f d112 b7bf
00000290: 872f d2bf a56f 963f f152 97bf f216 253e
000002a0: 18eb 97c0 a891 dcbe 123b 70bf bfae 2e3e
000002b0: 260c 27c0 04e0 7bc0 5f1d f03e 079f 003f
000002c0: 6016 563e df02 1640 74c6 49bf 1ada a73f
000002d0: d934 7dc0 b3ed cebd 2506 dd3f 201b 543f
000002e0: bf50 2940 2e56 b9bf 7bfa e1be f2b7 563f
000002f0: 0e5d fabd 1028 86bf b89a 1f40 8fe6 7ebf
00000300: 4edd b3bf 44a6 45c0 9147 d63e ecdf ab3e
00000310: 4a8a 1cbf 134f 2fc0 5f94 92c0 cbfd 39bf
00000320: f6a4 18c0 11d0 c73f 234f 3bc0 2669 fabe
00000330: affb 993f 56fd b9bf 87b2 5ac0 5e0f d23f
00000340: 4157 afbf 2380 86c0 2883 4a40 24e2 a0bf
00000350: 56a5 123f 262e a73e 2ce1 c43f ac18 b1bc
00000360: 2bf2 0b3f cad8 4ec0 caed 2dbe f23f 303f
00000370: f1eb bdc0 f372 043d 27e2 b2bf 80b5 1040
00000380: 9669 93bf e333 9040 9fef 73c0 c07e 1fc0
00000390: 495d 58c0 3739 10c0 63da 19bd 3b8a 5dbf
000003a0: c554 4ec0 6a72 a2bf ee65 1d40 87d4 d73e
000003b0: 7cf3 dcbf e234 7bbf e607 8cbe ee04 1ac0
000003c0: 51f3 9740 feeb 78bf 6c9f f03e 4d6c 91bf
000003d0: 2a9d a93e 23b2 dbbf b42c 55c0 1bce 91bf
000003e0: 8cb9 de3f acf8 7f3e 969e 8c3f ce48 dcbf
000003f0: 92f6 84be 74ef 823f 265d 28be 2a94 d5c0
2.224592 -3.6095328 -2.223568 -0.7837332 -0.22536968 -0.37395385 -3.0103154 1.437824
-1.9903479 0.13808772 -4.0083704 -0.057259135 2.1452525 -0.45443475 0.40887916 -1.1809704
-0.47479698 -3.0959485 0.2655627 -2.1607857 -2.1656888 -1.1983919 -1.7335981 -0.16931991
-7.801491 0.9733729 -1.6310496 -1.6154481 -3.6680405 -1.4282733 -1.8154593 -3.248575
0.76367354 -3.3144996 -0.7436558 -4.887715 -0.69143856 1.2715594 0.09327529 1.3789116
0.48879403 -1.8344679 -2.8328424 0.38926178 -0.4652843 -3.6395848 -2.5238237 -3.6576483
-0.10628516 -2.3075173 -1.2522725 0.91949415 -0.11203478 -0.65884995 -1.3201802 -0.18580946
-1.3926933 1.6260529 -1.4663686 -0.7563869 -1.708439 -2.148496 1.2338389 -1.6249843
-4.6408553 -1.7303426 1.7763807 -3.1312864 -3.128408 -0.9185895 -0.27880865 1.0457203
2.7525682 -2.938551 -0.019526808 3.8501039 -1.3240101 -1.8868399 -3.3966987 -3.0359154
-2.6618934 1.9465793 -0.18753473 -0.7293968 2.2308185 -1.6333275 0.94241095 -3.981468
-0.8252415 2.9800553 0.5952572 -0.98121613 -3.7640502 -0.03775992 -2.8063755 -1.0754613
-0.20866486 0.3340365 -0.7531761 -1.7141265 -0.32504973 -4.4205627 -0.8488956 -5.2099013
-2.1489067 -0.33056387 0.7192316 1.4712567 0.1083682 2.1897418 1.558015 2.6293797
-0.60287285 0.8973112 -1.9212214 -3.3494465 -0.81501687 2.0389538 -1.5541763 1.4151744
-5.322756 0.6837916 2.154538 2.905705 0.36822304 -1.6820648 0.56410235 0.66958183
1.2868611 -0.22682956 -1.2650164 1.9094257 1.0311892 1.7632207 -2.5399864 0.8133965
-1.5799412 -2.4710276 -0.5021752 3.2104154 -1.053282 -0.1956343 -0.9361404 -3.320466
-4.114388 2.8653276 -0.692977 -1.4073428 -5.918673 0.8010327 -2.1088376 -1.2546508
0.5454149 -2.3133514 -0.9842805 -2.4030867 -4.659833 1.4036242 0.026457919 -1.023923
-2.4704237 -3.3296642 1.6582532 -1.4302617 -1.6420754 1.1752821 -1.1822187 0.16122034
-4.747448 -0.43079877 -0.93840134 0.17058848 -2.6101165 -3.9355478 0.46897408 0.50242656
0.20906973 2.3439252 -0.7881844 1.3113434 -3.9563506 -0.10103931 1.72675 0.8285389
2.6455534 -1.4479425 -0.44136414 0.8387443 -0.1222478 -1.0480976 2.4938183 -0.99570554
-1.4051912 -3.088273 0.41851476 0.33569276 -0.6114851 -2.7392013 -4.5806117 -0.7265288
-2.3850684 1.5610372 -2.9267051 -0.48908347 1.2029933 -1.4530437 -3.4171464 1.641094
-1.3698503 -4.2031417 3.1642551 -1.2569013 0.5728353 0.32652396 1.5381217 -0.02161821
0.54666394 -3.2319818 -0.1698524 0.6884757 -5.9350514 0.032336187 -1.3975266 2.261078
-1.1516597 4.506334 -3.8115003 -2.4921112 -3.3806937 -2.253492 -0.037561785 -0.8653905
-3.223924 -1.2691166 2.4593463 0.42154333 -1.7261806 -0.9812757 -0.27349776 -2.406551
4.7484517 -0.97235096 0.4699663 -1.1361176 0.3312772 -1.7163738 -3.3308535 -1.1391023
1.7400374 0.24997205 1.0985897 -1.7209718 -0.25969368 1.0229325 -0.16441783 -6.6743364

bn1.running_var f4 [400]
00000000: 8e35 b142 8ce8 1542 5d0e bc42 3e36 0b42
00000010: 37c9 a442 dfe1 0043 fd24 b942 d519 4b43
00000020: 7a0b 5a42 2ad9 8e42 f23d c242 ca36 8642
00000030: a35d 6042 b884 f141 0875 1942 40ef d142
00000040: a2d9 bc42 747b ad42 0b5d 5942 0d10 2542
00000050: 739e 5c42 52f8 9c42 f6b9 b142 7769 e842
00000060: 452a f742 c99b 9242 a8bc f342 7cd6 1b43
00000070: dbf3 e442 3ce5 b042 004e cd42 9dde 1143
00000080: 31df 4f42 e960 8742 f933 ff42 4b35 aa42
00000090: 2769 5642 cb4f e542 22b3 f541 728a 0043
000000a0: 7792 6242 001f cd42 7f22 3442 5984 ee42
000000b0: 1869 c442 0610 2442 7fbb 1b42 cd24 8b42
000000c0: e09d 8742 a5ea ca42 43e5 9542 0a63 b342
000000d0: ccd0 5342 af1c 0c42 800f cd42 5a13 2a43
000000e0: 12d1 6942 b574 2443 010d bd42 7e81 4542
000000f0: 43e1 e542 90eb ba42 289f 0b42 ee2f ec42
00000100: e366 a742 7193 7a42 934d 8942 e7f2 3642
00000110: d1ab eb41 6433 b542 62e9 f541 efa7 c742
00000120: 8c7e c242 9aeb 2c42 ab31 ee42 5fcd 6a42
00000130: 8abc cc42 4d9d 8242 62d9 c642 5a0f 1d43
00000140: b216 1743 2c51 ed42 4dcd a442 4908 ce42
00000150: 05c8 8d42 886e 4842 7527 d242 773f 9e42
00000160: f4a2 8142 d531 c542 2d42 6342 9a62 1642
00000170: c85a 1642 f51c ae41 4277 b542 b425 bc42
00000180: 7708 dc42 4994 b442 7f61 9a42 d9de cd42
00000190: 71f1 a042 7873 1b43 2e8c 1a43 548c 8d42
000001a0: 4ce2 c042 48f8 d442 5d71 0543 8ce8 2942
000001b0: 46a2 d742 5111 c542 4322 1443 ea88 9642
000001c0: 03e3 da41 7c12 4843 be5a 3242 12e9 6442
000001d0: c6c2 2a42 fa86 6242 29d3 a642 d751 aa42
000001e0: 8e2b d742 9730 c342 e138 5042 b86c 9042
000001f0: 6581 1b43 d3ae aa42 1e39 8842 760d 3843
00000200: 611e 9442 1653 8942 fc86 4d42 8014 0c43
00000210: c603 0642 0a76 7a42 8f96 4343 eb17 cf42
00000220: ca95 1443 8345 9f42 be74 1e43 a376 f442
00000230: 04e1 7642 68c9 9642 0350 c442 1458 b942
00000240: cafc cf42 2185 2f42 70bc cb42 0c59 8d42
00000250: a9f6 8542 9c53 1642 0ac0 9342 3b47 c942
00000260: 0d8e c341 9524 8242 b5fb 4b42 026b 0b43
00000270: 0ed3 9342 80aa 2742 da32 4943 686f 5242
00000280: c6dc b842 bec6 a942 3b89 8e42 b3ec a442
00000290: 0f12 6342 20cb a142 6e2e a142 a1b3 b742
000002a0: b26c 9042 ba0b 8e42 0677 fb42 8a3a 1e42
000002b0: 899c a942 1f24 0e43 798a 5242 7a3b 5b42
000002c0: ff24 9242 b208 af42 b240 7e42 898f fc42
000002d0: e51a 7342 07d8 0643 af0f 6542 a870 f842
000002e0: 06f9 0543 7157 ac42 0899 6e42 36b5 c642
000002f0: f353 9241 e0f9 2d42 82e5 a842 c6fc bf42
00000300: 9fcf c842 4a7e b142 50b1 d342 1f3f 2943
00000310: 76e9 4742 ed13 d742 4218 7b42 ab32 6942
00000320: 094f 2c43 534d 3f42 7218 ce42 3e1b d742
00000330: 3ef3 6742 aed1 e542 169e 8142 beb8 1342
00000340: 41d7 e441 47ae 9742 5ad7 0043 55e1 eb42
00000350: 7bd6 9642 e1ef d942 af0f d442 bf85 e442
00000360: fad2 5242 763c 8842 9733 f542 a09d f742
00000370: 207f d742 ebbe 9742 a02d 2843 529a 1843
00000380: bb62 2f42 6faf 4b43 c045 dd42 dca2 8442
00000390: e869 6642 6916 f842 0627 8442 0413 a142
000003a0: 1312 9d42 a2eb cb42 f398 cc42 16ce d142
000003b0: a127 6a42 d818 1843 77c0 ff42 bde2 1e43
000003c0: 337a 1d43 30de 7342 9465 bb42 e35a 0543
000003d0: 71e3 a441 556f 5142 ba53 9642 997f a142
000003e0: a3ff 7142 5dd4 ba42 f663 3542 2af1 c942
000003f0: 155b a742 20ed df41 a5d0 9142 6f68 2643
88.6046 37.477097 94.02805 34.80297 82.393 128.88231 92.57224 203.1009
54.511208 71.42415 97.12099 67.10701 56.091442 30.189804 38.36429 104.967285
94.425064 86.74112 54.340862 41.265675 55.154736 78.485 88.863205 116.205986
123.58256 73.30427 121.86847 155.83783 114.47628 88.44772 102.65234 145.86958
51.96796 67.68928 127.60151 85.10409 53.602688 114.655846 30.712467 128.5408
56.643032 102.56055 45.033688 119.25849 98.20526 41.015648 38.9331 69.57188
67.80835 101.45829 74.94778 89.693436 52.953903 35.02801 102.53027 170.07559
58.45417 164.45589 94.5254 49.376457 114.939964 93.46008 34.905426 118.09361
83.70095 62.643986 68.65151 45.73721 29.458895 90.60037 30.738956 99.827995
97.24716 43.23008 119.09701 58.700558 102.36824 65.30723 99.424576 157.05997
151.08865 118.65854 82.40098 103.01618 70.89066 50.10794 105.077065 79.123955
64.81827 98.59733 56.814625 37.59629 37.588654 21.76414 90.732925 94.07364
110.01653 90.28962 77.19042 102.93525 80.471565 155.45105 154.54758 70.77408
96.441986 106.484924 133.44283 42.477097 107.81694 98.53382 148.13383 75.26741
27.360846 200.0722 44.588615 57.227608 42.69021 56.631813 83.41242 85.15984
107.58507 97.5949 52.055546 72.21234 155.50545 85.34145 68.11156 184.05258
74.05933 68.66228 51.38182 140.08008 33.503685 62.615273 195.58812 103.546715
148.58511 79.635765 158.45602 122.23171 61.71974 75.39337 98.15627 92.67203
103.99373 43.88001 101.86804 70.67392 66.98176 37.58165 73.87508 100.63912
24.44436 65.07145 50.995808 139.418 73.91222 41.916504 201.19864 52.608795
92.4312 84.88817 71.26803 82.4623 56.767635 80.89673 80.59068 91.85084
72.212296 71.0229 125.73247 39.557167 84.80573 142.1411 52.635227 54.808083
73.07226 87.51698 63.56318 126.28034 60.776264 134.84386 57.265316 124.22003
133.97275 86.170784 59.649445 99.35393 18.29099 43.49402 84.44826 95.9937
100.40551 88.74666 105.84631 169.24657 49.97799 107.53892 62.77369 58.29948
172.30873 47.825512 103.047745 107.55321 57.98754 114.90953 64.80876 36.930412
28.605104 75.840385 128.84122 117.9401 75.41891 108.96851 106.03063 114.26122
52.70603 68.11809 122.60076 123.80786 107.74829 75.87289 168.17822 152.60281
43.846416 203.68529 110.63623 66.318085 57.603424 124.04377 66.07622 80.53714
78.5353 101.96022 102.29873 104.90251 58.5387 152.09705 127.87591 158.8857
157.47734 60.96698 93.698395 133.35503 20.611055 52.358723 75.16353 80.749214
60.499645 93.41477 45.34762 100.97102 83.677895 27.990784 72.90751 166.40794

fc2.weight f4 [300, 400]
00000000: eeb1 f6bd 5703 813d 1692 8cbe 8f76 17be
00000010: e7ff fa3d d46d b4bc e90b ebbd dfae 88bd
00000020: 2044 1a3e 8137 4f3e 22fb d4be fd2e 2cbd
00000030: 0a99 fa3d 0b9c 0e3d bf8c 973d 9b0f 66be
00000040: 66e2 0bbf 22a4 3d3e 054d 20be 19f8 fabc
00000050: 99bd 363e 850c 82be f387 963d 8045 313d
00000060: 3470 fdbe b663 3c3b 269b 82be e8b2 1ebe
00000070: 3d8b 073e b120 58be 0a6c f43d 8384 fcbe
00000080: 62bd a0be 1083 61be a573 cbbe 92cd 2fbe
00000090: 6bac d1be 268a eebc 3aa2 babd e887 e5be
000000a0: 1ede 14bf f2d2 ebbe 6c31 5f3e acb7 1bbe
000000b0: 4a04 4f3e 28c8 4f3e b106 d4be fcbd a3be
000000c0: 31d3 1cbe 7dc0 6abe 8b93 07bf 300e 7abe
000000d0: 8110 42bd 3cb6 adbd 52db aabe 576a a1be
000000e0: 4c1f e0bd 88a3 2fbf c975 7f3d 9bc3 93be
000000f0: b1c9 7bbe 899d 16be f202 aebd f56c 0b3e
00000100: b4dd 3b3e 6f88 db3d 2e87 d2bd 0a8c 88be
00000110: 933f d1bd a0ca 03be 588a 10bf fa8c 2a3d
00000120: dd8a 01be 9b7f a7bd 1dff ecbe 2f2e b2be
00000130: 0561 a838 d917 9f3c 413f 7cbe 2d1f c1bd
00000140: b8a2 d5be da04 433e e318 41be 6854 21be
00000150: c1eb 84be 25b0 973e 1a4f 20be 3f01 7c3e
00000160: 6975 8bbe b363 cbbe 0228 0bbc d4b7 713d
00000170: 8358 debd 4132 6ebe 766f 3d3e 65d3 d83b
00000180: 26f2 52be 7ab0 e5bd 44b5 77be 63d7 b3be
00000190: 62d8 a3bd 8771 95bd 14af 07be e94e f0be
000001a0: ab0d d3be 2048 593e eaa5 b9be 3d4b 823c
000001b0: 4fb7 bfbe cb41 2e3d cd73 453d 8a0c bdbd
000001c0: a621 873d d338 31be e089 fcbe cb3d 27be
000001d0: a705 eebd e3e0 5d3e edb3 eabc 1ebe 2dbe
000001e0: f42b 95bd 0f26 2d3d 7193 153d 217b 0fbe
000001f0: 2c9c 90be 68a5 a0bd 8f1f b13e 7512 9abc
00000200: d9c8 373b 1831 3cbd 5f46 923d e4f0 203d
00000210: f6b2 22be 0a2c 46be a4ec fbbe 9572 9abe
00000220: b147 033c c5df 443e 2f31 b4be 02a8 37be
00000230: 7a9d 363e fcaf 58be 56df e1be 94d4 9f3c
00000240: b432 fa3c 3773 4d3d e7c8 6e3d fe97 81bd
00000250: a8a4 32be ef4c 26bf 2aab ef3d 0853 b23d
00000260: c013 3fbe 6d58 41be 85fc ce3d e06e b3be
00000270: dca8 02ba 987e ea3b 96f8 a3be 202f e2be
00000280: 5cc1 273e cae3 6ebe d70e 77be 46a0 123e
00000290: 82e2 923e 87de 47bd 2c08 f5be 1791 2cbd
000002a0: 81a2 cdbd b16b f8bd 6071 b03d d27f 21bd
000002b0: 7cc3 243e ec96 f8be bcc9 8cbe 4754 9a3d
000002c0: 66f2 e0be eed7 593e 8675 a1be 1253 a6be
000002d0: ea9f 1fbe bab9 32bc 5a8a b43d 89e2 c43d
000002e0: 4e33 53be c6a1 66bd 6d26 23be 31a7 e43d
000002f0: f4af 59bd 5186 2cbe a337 c2be 6151 4ebe
00000300: 2025 63be 9906 adbd 05d0 aebd 8f0c 09be
00000310: b2a4 59be 05b4 c33d 941c 4ebe 517c d1bd
00000320: f520 0dbd 7528 82be 8b46 7ebe e7f4 cabe
00000330: ff4b ffbe 8df5 8d3e d935 25be 68ac 1abe
00000340: 2a73 2b3e 153e babd 28a6 c93e 1676 59be
00000350: ea4e 76be e749 50bd 82d9 64be 4273 f9bd
00000360: 8683 023e 1891 7fbe 3609 c1bc 5e9c 5abb
00000370: 2dae 08bf 6b02 8dbe 9241 963d 3793 fd3c
00000380: 26b1 993c 37f7 efbe ff82 d3bd aa54 69be
00000390: 2cbd 03be 5420 8abd 9b96 85bd a579 2ebd
000003a0: e7a6 cdbb af51 82be ec98 27be 65a8 96be
000003b0: 3338 8abe 1fa9 7abe bbe4 753d 37e8 083e
000003c0: 0099 48be ccc4 aa3c 2370 cebc 8ba5 94be
000003d0: 77f8 d9be ac01 02bf f9fe 75be 7d6a 15bd
000003e0: 2e41 70be 333e 543d b80a 1fbe 306a 97be
000003f0: 8500 0fbe 5125 06bd edd2 c5be 5aa9 a93d
-0.12045656 0.06299465 -0.27455205 -0.1479132 0.12255841 -0.022025026 -0.11476881 -0.06673979
0.1506505 0.20236017 -0.4159785 -0.042037 0.12236221 0.034816783 0.07399892 -0.2246689
-0.5464233 0.18519643 -0.1565438 -0.03063588 0.17845763 -0.25400177 0.07350149 0.04327917
-0.49499667 0.0028745956 -0.25508994 -0.15497935 0.13236709 -0.21106221 0.11934669 -0.49319848
-0.31394488 -0.22022653 -0.39736667 -0.17168263 -0.40951857 -0.029118609 -0.091129735 -0.4483025
-0.58151424 -0.46059376 0.21796197 -0.15206784 0.2021648 0.20291197 -0.41411355 -0.31980884
-0.15314938 -0.22924991 -0.5295951 -0.24419475 -0.04737902 -0.08482024 -0.33370453 -0.31526443
-0.109434694 -0.68608904 0.062368188 -0.28860173 -0.24588658 -0.14708532 -0.084966555 0.13615783
0.18346292 0.10719382 -0.1027969 -0.2666934 -0.10217204 -0.12870264 -0.56461096 0.041638352
-0.12650628 -0.08178636 -0.46288386 -0.3480086 8.0289356e-05 0.019420551 -0.24633504 -0.094297744
-0.41725707 0.1904482 -0.1885715 -0.15754855 -0.25961116 0.29626575 -0.15655175 0.2460985
-0.27238014 -0.39724502 -0.008493425 0.059013203 -0.10856726 -0.23261358 0.1849955 0.006616997
-0.20600185 -0.11215301 -0.24190241 -0.35125265 -0.08000256 -0.07297044 -0.13250381 -0.46935204
-0.41221365 0.2121892 -0.36259395 0.015905017 -0.3744454 0.042543214 0.04820614 -0.09230907
0.06598215 -0.17306833 -0.4932394 -0.16332166 -0.11622172 0.21667819 -0.028650248 -0.16967055
-0.07283774 0.042272624 0.036517564 -0.14011814 -0.2824415 -0.07844049 0.3459439 -0.01880763
0.0028043299 -0.045945257 0.071423285 0.03929223 -0.1588858 -0.19352737 -0.4920398 -0.30165544
0.008012698 0.19225986 -0.35193774 -0.17935184 0.1783351 -0.21160883 -0.44115704 0.019510545
0.030541755 0.050158706 0.058297064 -0.06327818 -0.17445624 -0.6496114 0.11702569 0.08707243
-0.18659878 -0.18881388 0.10106758 -0.35045528 -0.00049842685 0.0071562044 -0.32025594 -0.4417658
0.16382354 -0.23329082 -0.24126755 0.14318952 0.28688437 -0.048796203 -0.47857797 -0.042130556
-0.10040761 -0.121299155 0.086153746 -0.03942854 0.16090196 -0.48552644 -0.2749766 0.07535606
-0.43934935 0.21273777 -0.31534976 -0.32485253 -0.15588346 -0.0109085385 0.08815451 0.09613521
-0.2062504 -0.056306623 -0.15932627 0.11164702 -0.053146318 -0.16848113 -0.37933072 -0.20148231
-0.22182131 -0.08448524 -0.0853577 -0.13383697 -0.21254233 0.095558204 -0.20128089 -0.102287896
-0.03445526 -0.2542149 -0.24831598 -0.3963997 -0.49862668 0.27726403 -0.16133823 -0.1510483
0.1674315 -0.090938725 0.3938458 -0.21236452 -0.24053541 -0.05085173 -0.22348598 -0.12180187
0.12745485 -0.24957693 -0.023563962 -0.0033357362 -0.5339077 -0.27540907 0.07336725 0.030953987
0.018761229 -0.46868297 -0.1032772 -0.22786203 -0.12865132 -0.06744447 -0.06522866 -0.042596478
-0.006276 -0.25452945 -0.16366929 -0.2942535 -0.26996002 -0.24478577 0.060032587 0.13369833
-0.19589615 0.020845793 -0.025199955 -0.2903255 -0.42572376 -0.507838 -0.24023046 -0.03647851
-0.23462364 0.05181713 -0.15531433 -0.29573202 -0.13965042 -0.03275043 -0.38637486 0.08284254

fc2.bias f4 [300]
00000000: 5fb5 63bd 9f5b c6be 50d3 ad3c 4465 b8bf
00000010: 4f3b 23bd e079 bf3b ff69 62bf b0a0 fa3e
00000020: 9bb7 4ebd 8c7e 0d3e 52ba 9c3e 36f8 a3be
00000030: a7c4 b43e 6904 42bf b9eb 24be 5319 23be
00000040: cbda 093e 0681 743e d83c 953d 9b17 8d3d
00000050: c6cc 9a3c 042f edbe f7ca 9bbf d9f6 623c
00000060: a659 b4be 1296 4abb 0e73 a4bd 13f4 c2bc
00000070: c76e 4bbf 933c 2e3e 5468 283e 4f14 42be
00000080: 81ec 2e3e ce7a a6be f6d0 38bf 8244 063d
00000090: 399f 78bf 8b6f 09bf 3df0 06bf 4d69 4ebf
000000a0: a8c4 39bf 4ede 0dbe 70db 65bf f4da a6bd
000000b0: d572 eebe 3746 1e3e 8945 1e3e fbf1 a8bd
000000c0: 31b9 a03e be35 8bbc 25bf cebe 7ff5 07be
000000d0: a959 b1be 51ea 33bd 598f 943d b8d5 bfbc
000000e0: 1199 43bf d2d5 5dbf be15 3dbd 3cb7 e63e
000000f0: d1c1 81be 5859 343e fd70 8dbd 4577 c03d
00000100: a374 8bbc 2270 debd 682e 743d 3a1a a5bd
00000110: a487 5d3d bb09 35bd 7552 5bbe 1286 a53b
00000120: b64e d93d f6a1 84bf 267a ccbe 9393 b0bf
00000130: 6664 d9be bc7b 17be a89d 39bf c8c2 fc3d
00000140: 0d61 a83e 4b8c 7bbf 60a6 0dbf 04b8 03be
00000150: 3482 82bf fe32 fdbe 4da5 84be d557 cf3d
00000160: 2ac9 4bbf cca0 dfbe e103 b2be e86e 18bf
00000170: 90fa 8abf f86b 3dbc 5fcf 8f3f 6cc7 a7bf
00000180: 0d99 f63d 6d57 3abe 1bf0 c63e dda6 2dbf
00000190: bb1b 70bd 3ddf 1abf 75db 44bc 43b8 18bf
000001a0: 0b80 99bf 9230 5b3d 9bf6 463e ddad c1bd
000001b0: 9b31 81bf 94eb 12bf fc0f ccbb 66f1 a4bd
000001c0: c67c dd3e d291 bebe 5556 57bf 9e4d ed3d
000001d0: d780 7abf 0cbd 20be 121a 6abf 42f4 b03d
000001e0: 68b3 ae3e d2ca ca3c 9c9d dcbe 9696 653e
000001f0: 55a0 e83e be76 2bbf 48c8 c8bd 2d77 b13c
00000200: 2de6 d13e 2bfa d1bc 63ca 16bf 8e17 8bbd
00000210: 7438 1ebe 5cb6 d8be f86a abbe bdf8 36bd
00000220: ac59 c1bd 40e5 1fbe 9da8 343c 3b61 903d
00000230: 095d c2bd 0d5e 403e 3fac 6dbf 3479 dbbe
00000240: 12f4 493f c936 0fbd dee5 ea3d e657 b8be
00000250: b798 87bc a6e2 2e3e 601a ccbe c932 8abe
00000260: e6d9 77bb 40d7 5ebd 7e07 6e3d cc45 56be
00000270: ed1f 663e f19d b4bd 4711 34bf 8acd efbe
00000280: 48f4 6fbf ec81 633d fecd 01bd 95db 65bf
00000290: 2a6f ff3d be77 e63d 16e1 ba3e 4660 3fbf
000002a0: 0047 03be 0ec4 2fbf fd86 aabd 79af 49bf
000002b0: e1c3 4f3d 22cb d03d 06bd d7bd 08c4 bfbe
000002c0: 11d1 e2be bc90 a43e 0a0f 06bb d2c4 48be
000002d0: 6195 613e 6444 2dbf cdb0 06bf 4964 d33e
000002e0: 1405 553e 49d7 d43e a5ce 58bf 08c0 3dbd
000002f0: f322 163e 534b 50bf cf76 273a 041c b6be
00000300: 9157 79be 4ed6 353f 8ba0 adbd 02e8 46bf
00000310: 8460 d0be 8c8b 72bd ac8a 72bf bb17 15bf
00000320: 955e 77be 2e3f df3d 91d8 0fbe 8797 043e
00000330: 8350 45bf 04b0 d2be 3c4c 593e c7b6 77be
00000340: ccd4 84bf 7bba 99be 4ea1 e63d 23ef 99bf
00000350: ef67 15bf 7162 bdbe ba68 03bf dc6b cbbd
00000360: f303 55bf 420d 683e 186f 1fbd e564 aebc
00000370: ea4c 1fbf d692 6a3e c809 f4bd 457b 93bd
00000380: 2d07 1e3e f787 81be 0f9d 6cbe 2879 73bd
00000390: b60e 0b3e f53b 18be d0b3 bcbd d7f0 38bb
000003a0: c994 6abe 78da c5bd c066 87be f235 2dbf
000003b0: 0a15 8ebe d46b 4fbc a455 1dbd 14f6 ce3d
000003c0: ea31 43bd a312 bfbb 6ac0 7dbf fd60 1ebe
000003d0: 3988 0e3f 4220 ebbe af6b 4f3e c7a2 69be
000003e0: b5f9 2cbd 7d31 8abf eae3 8fbd ed1c d5be
000003f0: 27b1 13bf 30ef 6cbd 184f 11bf 533b 983e
-0.05559289 -0.38741776 0.021218926 -1.4405904 -0.039851483 0.005843386 -0.8844299 0.4895072
-0.05046807 0.13817805 0.306109 -0.32025307 0.35306284 -0.7578798 -0.16105546 -0.15927629
0.13462369 0.23877344 0.07286996 0.06889268 0.018896472 -0.46324933 -1.2171315 0.013852798
-0.35224646 -0.0030912203 -0.080297574 -0.023798024 -0.7946591 0.17015295 0.16446048 -0.1895306
0.17082407 -0.32515568 -0.7219385 0.032780178 -0.97117954 -0.53685826 -0.52710325 -0.80629426
-0.725657 -0.13854334 -0.8978796 -0.08147231 -0.46571985 0.15456472 0.15456213 -0.08249279
0.3139129 -0.0169934 -0.40380207 -0.13277243 -0.34638718 -0.043924633 0.07253904 -0.023417339
-0.76405436 -0.8665439 -0.046163313 0.45061672 -0.25343183 0.17612207 -0.069063164 0.09397749
-0.01702339 -0.108612314 0.05961457 -0.08061643 0.054084435 -0.044198733 -0.21418174 0.005051383
0.10610716 -1.0361927 -0.39936942 -1.3795036 -0.4245941 -0.14793295 -0.7250619 0.12341839
0.32886544 -0.98260945 -0.55331993 -0.12863165 -1.0195985 -0.49452966 -0.25907364 0.101241745
-0.79603827 -0.43677366 -0.34768584 -0.5954423 -1.0857716 -0.011561386 1.123516 -1.3107734
0.12040911 -0.18197413 0.3885506 -0.6783274 -0.058620196 -0.60496885 -0.012015213 -0.5965616
-1.1992201 0.053513117 0.1943001 -0.0945699 -1.0093263 -0.57390714 -0.0062274914 -0.080538556
0.43259257 -0.37220627 -0.8411611 0.1158707 -0.97852844 -0.15697116 -0.9144603 0.086403385
0.3412125 0.024754915 -0.43088996 0.22420725 0.45434824 -0.6697806 -0.098038256 0.021663273
0.40995923 -0.025631985 -0.5890257 -0.06791602 -0.15451223 -0.4232663 -0.33480048 -0.04467081
-0.09440932 -0.15614796 0.011026529 0.07049795 -0.09490401 0.18785878 -0.9284095 -0.42865908
0.78888047 -0.034964357 0.11469625 -0.3600456 -0.016552312 0.17078647 -0.39863873 -0.2699187
-0.0037819087 -0.054404497 0.058112614 -0.20925063 0.22473116 -0.088191874 -0.70338863 -0.468365
-0.9373212 0.055543825 -0.03169059 -0.8978818 0.12472375 0.11253308 0.36499852 -0.74756277
-0.12820053 -0.6865853 -0.08326528 -0.78783375 0.050723914 0.101949945 -0.105341 -0.37454247
-0.4430013 0.32141674 -0.0020455741 -0.19606331 0.2202964 -0.6768248 -0.52613527 0.4128745
0.20802718 0.415705 -0.84690315 -0.046325713 0.1466177 -0.81364936 0.00063882483 -0.3556825
-0.2434981 0.7103013 -0.08477887 -0.77697766 -0.40698636 -0.059215114 -0.94742846 -0.58239335
-0.24157174 0.109007224 -0.14047457 0.12948428 -0.77075976 -0.41149914 0.21220487 -0.24190818
-1.037744 -0.30025086 0.11261235 -1.2026104 -0.58361715 -0.36989167 -0.51331675 -0.09932682
-0.8320915 0.22661307 -0.038924307 -0.021288345 -0.62226737 0.22907576 -0.11915928 -0.07201246
0.15432425 -0.25299045 -0.23106788 -0.059441715 0.1357983 -0.14866622 -0.09213984 -0.0028219724
-0.2290832 -0.0966081 -0.2644558 -0.6766044 -0.27750427 -0.012659986 -0.03841175 0.101055294
-0.047655024 -0.005831079 -0.99121726 -0.15466686 0.5567661 -0.45923048 0.20255922 -0.22816001
-0.042230327 -1.0796353 -0.07025893 -0.4162363 -0.5769219 -0.057845294 -0.5676131 0.2973276
