critic_ckpt.pth (torch_old, 549636 bytes, 9 tensors)

fcs1.weight f4 [400, 33]
00000000: 4bb2 4a3d 13b1 453d 62d1 19bd b569 c33e
00000010: f85d f13e d9ef 043e a911 1ebe f0b0 8c3c
00000020: 63c3 b03c f936 5cbd fc03 e93b cdc9 003c
00000030: 5191 ecbb 9dbb 89bc 73b4 a13a 22de b13c
00000040: d5e5 583e b09f 2c3e 9287 3dbe 949e 3f3e
00000050: 029e 07bc 8a56 ab3b 57d6 98bc 86b0 20bc
00000060: 894c b4bb d736 e9ba 724f 56be 32e3 ad3b
00000070: 91c1 8abc 1641 24bd 8e5d 82bb e87b 64bc
00000080: 957a 21c1 7246 5cbe bda0 5fbf 6639 ccbe
00000090: 0fec 54bf 607f 603e 8323 e3bf d817 cfbd
000000a0: fc9b 19be 95cc 6c3f 6752 963e 09a6 47be
000000b0: caf4 efbe 477c 14bf b931 0cbf 0e56 b43f
000000c0: 06a4 b93e 8b64 8dbf 9c1b cabe 2130 5dbe
000000d0: d670 563f 1623 863c 30f3 7a3e 0553 733d
000000e0: e0d6 a5be 518b 1e3f 7ff0 abbd 325d 7b3d
000000f0: c4c2 293d 1646 94be ea36 f3bc 4d5f bd3a
00000100: d0f3 6d3b 8bef 3c3f 175a 2b3f fb12 c13e
00000110: 8379 1a3f 3a70 023f 6a74 fa3d 4e11 d2bd
00000120: 9a41 d13e 755b a7be f9c4 da3f cf41 713e
00000130: d55c e9be c247 96be 99fd 19be 82fe babe
00000140: 1673 92bf 548c 4c3f a7df 263e a486 f73f
00000150: 4441 a23d 6d67 02be 0948 87be e54a 2b3f
00000160: dfd5 05bf 6d93 30bd 4f1e 14bd 3f5a 0cbf
00000170: 962c 9bbe b5c6 19bc 9c2e 843d 4e4f c23c
00000180: f903 b4bc b327 32bd 65b1 0d3f 4985 94be
00000190: 2544 1f3e d680 59be d29f 46bf 8506 86bf
000001a0: 4fb1 613f d658 c13f e369 683e a967 d3be
000001b0: feeb a0be fb41 b3bc 3e84 6cbe a24f 7c3e
000001c0: 6c7e 873e a02b 31be 897b 89be d74d 1a3f
000001d0: 3b45 25bb 92ff 4b3e df1b ce3e ab3f eebd
000001e0: 9b4b 7f3e 75a7 bcbd 0ab1 153d e484 1abd
000001f0: b327 7dbe e034 09c0 4e83 f63c c76d 7fbe
00000200: 735d 033d 8b25 43bc 60c4 063c 1763 5ec0
00000210: 1204 b83f e98c f93f 6f20 523e 875b 6bbe
00000220: aa8c 403d e0b1 ea3d 0bbb 12be 6b24 163f
00000230: cdd2 1c3f 5a01 6b3f be0e d43e 6c4b 3a3f
00000240: d18c ecbe 1256 a73d 6011 06be 161c 30bd
00000250: 0044 b73e d2a6 aabe 99fa 423e cbda c23e
00000260: 22ca cabe 131c a43b f1a4 5c3e cb7b 9fbd
00000270: 8b9d 9e3e 103e 28bd e3bc a2be cf25 8b3c
00000280: ee3d 4cbe ca28 34bd e1e3 953c 20b9 4abb
00000290: ab24 533f 6565 80bf cf95 4fbf 8c80 9c3f
000002a0: 9015 92bf 48e9 2b3f 855d 9bbe a5fe b73e
000002b0: 4b83 b33d 1379 ce3d 4451 a63e 366b e9be
000002c0: f3f0 96bd 5499 073e 94c8 6f3e b509 b0bf
000002d0: 208e 043f 6c9c 66bc 202d 5b3f 7adb a2be
000002e0: 8ba1 71be b402 0f3f 2f7e 06bf dfbb e43e
000002f0: 20cc a83e 9271 29be 7e9a aabe a803 a73d
00000300: bdf1 1dbd bf1f d2be 8e1a 26bd 1943 093b
00000310: b871 1ebc f7ad 10be ed1e 613f 4376 353f
00000320: 19a9 313f a9b8 febf c75e e13e ff39 d73f
00000330: 8928 babb 0596 a73c 4838 893e 993d 353f
00000340: ed85 f13e bf5f 703e d460 c1bd ca77 6c3e
00000350: 4b7c 89be 928a b33e bed9 f3be a66c 13bf
00000360: 4c11 513e 4722 9a3d 30a8 193d 9edd b43e
00000370: 911f 613e 4fa4 433e 6423 d83c a6f0 5e3d
00000380: e3af 8fbf d088 d53c 12f7 aabe d2c3 3cbd
00000390: 9425 233d 8b01 2ebd 0ecc d93e 4474 29bf
000003a0: a399 98be 858a 8fbe 3659 f63e 3df2 82bf
000003b0: 9dd3 f93f c818 eebe f898 22bd a84b 8cbf
000003c0: 65fd 313f 8b6a ff3e 1c98 a1bd c83f 95be
000003d0: a303 c73d 25a3 103f f2c4 15be 1b0e 6c3f
000003e0: 378b 0dc0 adc2 afbe 28a2 d5be 828c 07bf
000003f0: 4198 653e adcf 3c3f ffcb 96be b715 be3d
0.04948644 0.048264574 -0.0375532 0.38166586 0.47142005 0.1298212 -0.15436424 0.017174214
0.021577543 -0.053763364 0.0071110707 0.007860613 -0.0072194715 -0.016813094 0.0012337103 0.021712366
0.21181424 0.16857791 -0.18508747 0.18712837 -0.008277418 0.005228822 -0.018656893 -0.0098077115
-0.0055022878 -0.0017792833 -0.20928743 0.005306625 -0.016938003 -0.040101133 -0.0039784377 -0.013945557
-10.092427 -0.21511248 -0.8735464 -0.39887542 -0.83172697 0.2192359 -1.7745212 -0.1011197
-0.1500091 0.9249967 0.29359743 -0.19496931 -0.46866447 -0.5800213 -0.5476337 1.4088762
0.36257952 -1.1046308 -0.3947419 -0.21600391 0.83765924 0.016374152 0.24506831 0.059405345
-0.323905 0.6193133 -0.0839548 0.061368175 0.04144551 -0.2895972 -0.029689271 0.0014447958
0.0036308654 0.73803014 0.6693434 0.37709793 0.6034166 0.50952494 0.122292355 -0.10257207
0.40870363 -0.32686964 1.7091361 0.2356026 -0.45578638 -0.29351622 -0.15038146 -0.365223
-1.1441371 0.79901624 0.16296254 1.9337964 0.07922605 -0.12734766 -0.26422146 0.66911155
-0.52279466 -0.043109346 -0.036161717 -0.54825205 -0.30307454 -0.009385754 0.064542025 0.023719456
-0.02197455 -0.04349489 0.5534881 -0.29007939 0.15553339 -0.21240553 -0.77587616 -1.047074
0.88161176 1.5105236 0.22696643 -0.41290024 -0.31430048 -0.021882048 -0.23097321 0.24639753
0.2646364 -0.17301798 -0.26852062 0.60275024 -0.0025218267 0.19921711 0.4025564 -0.116332375
0.24931185 -0.092116274 0.03654579 -0.03772439 -0.24722175 -2.1438522 0.030091908 -0.2494422
0.032071542 -0.011910806 0.00822553 -3.474798 1.4376242 1.9496127 0.20520185 -0.22984134
0.047009148 0.11459708 -0.14329164 0.5864932 0.61259156 0.9179894 0.41417497 0.72771335
-0.46201184 0.081707135 -0.13092566 -0.042995535 0.35794067 -0.333304 0.19040908 0.3805755
-0.3960734 0.0050082295 0.21547295 -0.077872835 0.3097957 -0.041074812 -0.31784734 0.016985802
-0.199455 -0.043984212 0.018297138 -0.0030933097 0.82477826 -1.0030943 -0.81087965 1.2226729
-1.141283 0.67152834 -0.30344787 0.35936466 0.087652765 0.10081687 0.32483876 -0.45589608
-0.07370176 0.13242084 0.23416358 -1.3752962 0.51779366 -0.01407538 0.8561573 -0.31808072
-0.2359678 0.558635 -0.5253629 0.44674584 0.32968235 -0.1654723 -0.33320993 0.08154994
-0.038560618 -0.41039845 -0.04055267 0.0020944534 -0.009670667 -0.14128862 0.87937814 0.7088358
0.6939865 -1.9900104 0.44017622 1.6814574 -0.0056811017 0.020457277 0.26800752 0.70797116
0.4717249 0.23474024 -0.094422966 0.23092571 -0.2685264 0.35066658 -0.47627062 -0.5758766
0.20416754 0.07526069 0.03751391 0.3532533 0.21984698 0.19105648 0.026384063 0.05442872
-1.1225551 0.026066214 -0.33391625 -0.046085186 0.03983076 -0.04248194 0.42538494 -0.6619303
-0.29804716 -0.2803537 0.48114938 -1.0230175 1.9517704 -0.46503282 -0.039696664 -1.0960588
0.69527274 0.49885973 -0.07890341 -0.29150224 0.097174905 0.5649894 -0.1462591 0.92209023
-2.211622 -0.34328213 -0.41725278 -0.5294877 0.22421362 0.7375439 -0.29452512 0.092814855

fcs1.bias f4 [400]
00000000: f3f1 463d aaeb 1e3e 64b4 bb3d ddc4 ee3c
00000010: d284 f1bd 881e ee3d 9420 cd38 b17a 6c3d
00000020: a578 aabd 3354 14be 1913 1fbe deeb 56bd
00000030: a885 04be b69b 1abe d7a1 2f3e 6055 8d3d
00000040: dd96 bdbc 723d 1ebe 021d f9bd 7941 28be
00000050: 8999 31bd 6d91 fd3d 9d47 bdbc ad3f 1e3d
00000060: a52a 4cbc a03c d83d 8173 2a3e 5d41 91bd
00000070: bf27 09be 0417 d13d a4da eb3d dcac 643c
00000080: 3439 a0bd de1b 28bd d5b6 c93d b1d0 543d
00000090: f5f3 77bd 2ad2 4a3d 1468 5f3d f529 4cbd
000000a0: fe9d ccbd c8cf 2e3d 074e 2f3d e603 2d3e
000000b0: 9264 ebbc 16f0 d23c 2785 1d3d 32fc 9f3d
000000c0: 4685 a73d 6d78 f8bd efb8 173e e9fe 0b3d
000000d0: 31fa 313e c462 09be 0fd0 1e3e eb7c 023e
000000e0: b47c 88bd 3861 24be e4a9 e83c ac0d da3d
000000f0: c83d b6bd da00 943d 04f1 df3c 1042 173e
00000100: 5cc8 2d3e 3e2a a23d 08b7 f8bc 48b5 6ebd
00000110: 725d fb3d 4edd bfbd a977 84bd 13bf d0bd
00000120: edc1 31be 0a82 203e dc7e e43d b251 923d
00000130: 7f85 033e 6634 fe3d d32f f63d 1e01 e8bd
00000140: ff97 e83d 50e7 46bc 9c17 2b3e 49e8 1c3e
00000150: c5a6 1f3d 6217 c0bd 52d6 273e fe5f 30be
00000160: 100c 99bd 26fa 533d 9bfa a33c 4c02 07be
00000170: 1941 d0bd 4521 0b3d ba28 09bd f9ce 0fbe
00000180: bba7 ce3d e170 033e f69f 8cbc 658a b43d
00000190: 75bd 153d 19ed c53d 3f93 a73a 382b 583d
000001a0: 54db f73d cb88 5dbd fa40 003e f395 473d
000001b0: 5d46 10be 4c9d 0d3e bc83 8bbd 5079 2ebe
000001c0: 3b70 34bd a656 30be 3e53 4cbd b598 30bd
000001d0: bf55 00be 885a 113e fc87 de3d 0767 b33d
000001e0: ee5c 243e 89da 90bd 9c1c 883d 87c2 043e
000001f0: 9bd5 0e3e 8b7d 823d b39a a33d df15 213e
00000200: 42f6 143e f529 0ebe 1f5d 123e 212c 8cbd
00000210: 195b e73d 35af 2dbe d3d7 223e f6b1 143e
00000220: a09f 4bbd 0eca 223e 6ca0 0f3d d2fd eabd
00000230: 53a2 8c3d bd93 e0bd a8be babd 9d6d 193e
00000240: 92d7 ab3b 9ece c1bd 4391 2abe e123 13bc
00000250: 2d0d a03c 04c4 f8bc 6864 013c 790e 123e
00000260: 2dbf 22be aaa8 253d 8b16 a4bc bce3 1cbe
00000270: d42e 2dbe 2525 05bc b4c2 2bbe 8f68 303e
00000280: 99dc 18be 8df8 9ebb 666f 88bb 474b d0bd
00000290: a8a2 263e ae3e cebc c76c 88bd 4bff 0f3e
000002a0: 9342 683d 2719 56bd 88b9 2cbe c61d 09bd
000002b0: 8198 31bd b2b3 43bd 83b8 d33d 89fc 49bc
000002c0: c7b4 3e3d 75a2 113e 8dc7 3a3b 3f14 283e
000002d0: 6089 953d 7053 05be ebf3 b23d fd7a 93bd
000002e0: d5bc 0c3e b795 4a3d bf5d d7bd 8edc d7bd
000002f0: 41a1 30be a366 2abe aee6 e0bd 88f7 363d
00000300: e3de 4cbd 2ee3 093d 0938 18be 6377 51ba
00000310: 488f a8bd ae51 3a3d 2648 f7bd 3a35 ab3d
00000320: 42a2 94bd 2eca 9d3c 3aed 96bd dbbd 173e
00000330: daff 863c ee3e ad3d 2c41 8cbd 4ddb 0e3e
00000340: 7c27 84bd dedb e23d 18fc 2a3e 9d92 b3bd
00000350: 8c3d 213d 5c7a 103d bb9c c8b9 3c3d 9a3d
00000360: 41d0 1d3e eac6 98ba 4d51 2e3d 755e dd3d
00000370: 0590 12be ef46 d23d b97e b03b 1882 01be
00000380: dc9b 923d 69d6 a3bd 101b 03be e4eb 68bd
00000390: a437 b93c da95 cd3d fe7c 9dbd c860 153e
000003a0: b443 fdbd b75b 02be daa6 8c3d 298d 273e
000003b0: b3f4 063e 108f 003e 598c 2c3c 206a 7dbd
000003c0: 002e 02be 4736 febd 4c0b 5d3d 222d 4abc
000003d0: da8f e2bc 5b04 08bd e180 ddb9 b758 d0bd
000003e0: d0d6 21bd 7938 123e 7983 bdbd 95f9 52bc
000003f0: b6bd 0cbe f5c9 8ebd 2857 713d b97e 9a3d
0.048570585 0.15519586 0.09165266 0.029146606 -0.117929116 0.11626917 9.78123e-05 0.057734195
-0.08323792 -0.14485244 -0.15534629 -0.052471034 -0.12941611 -0.15098462 0.17151581 0.069010496
-0.023143226 -0.15453127 -0.12163736 -0.16431226 -0.043359313 0.123812534 -0.023105437 0.038634945
-0.012461339 0.10558438 0.16645624 -0.07092545 -0.13394068 0.10209468 0.11516312 0.0139572285
-0.07823411 -0.0410422 0.098493256 0.051956836 -0.06053539 0.049516834 0.054542616 -0.0498447
-0.09991072 0.042678624 0.042799022 0.16896018 -0.02873448 0.025749248 0.038457062 0.07811774
0.08179717 -0.121323444 0.1481664 0.03417865 0.17380597 -0.13416582 0.15509056 0.12742965
-0.0666441 -0.16052711 0.028401323 0.10647139 -0.088985026 0.07226725 0.027336605 0.14771295
0.16970962 0.07918213 -0.030360714 -0.058278352 0.12273683 -0.093683824 -0.06468136 -0.101926945
-0.17359133 0.15674606 0.11157009 0.071444884 0.12843893 0.12412338 0.120208405 -0.11328338
0.11357116 -0.01214011 0.16708225 0.15322985 0.038977403 -0.0937946 0.1639035 -0.17224118
-0.07473004 0.051752232 0.020016959 -0.1318447 -0.101686664 0.033967275 -0.033486106 -0.14043798
0.10090586 0.12836029 -0.01716612 0.08815459 0.036557633 0.096643634 0.0012784972 0.05277559
0.121023804 -0.054085534 0.12524787 0.048726987 -0.14089341 0.13829535 -0.06812236 -0.17038465
-0.044052344 -0.17220554 -0.049884073 -0.043114383 -0.1253271 0.14194691 0.10865781 0.08759885
0.16051075 -0.07072932 0.06646082 0.12964831 0.13948672 0.06371602 0.07988491 0.15731
0.14547065 -0.13883193 0.14293335 -0.068443544 0.112966724 -0.16961367 0.15902643 0.14521012
-0.049712777 0.1589739 0.0350651 -0.11474194 0.068668984 -0.10965679 -0.09118396 0.1498322
0.005244204 -0.09463237 -0.16656975 -0.008980722 0.019537533 -0.030366905 0.007897474 0.14263333
-0.1589324 0.040444054 -0.02003028 -0.15321249 -0.16912395 -0.008126532 -0.16773492 0.17227386
-0.14927901 -0.004851407 -0.0041636704 -0.10170608 0.16272986 -0.025176372 -0.06661373 0.1406223
0.056704115 -0.05227008 -0.1686765 -0.03347566 -0.04335833 -0.047778793 0.10337927 -0.0123282755
0.04655912 0.14222129 0.002850029 0.16413973 0.07301593 -0.1302011 0.0873793 -0.072011925
0.13743909 0.049459185 -0.105159275 -0.10540114 -0.17249013 -0.16640715 -0.10981499 0.044669658
-0.05001725 0.03366392 -0.14865126 -0.00079905073 -0.08230454 0.045488052 -0.12074308 0.083597615
-0.07257511 0.019261446 -0.07369466 0.14818518 0.016479421 0.084592685 -0.06848368 0.13950844
-0.064528435 0.110770926 0.16697729 -0.08768199 0.039365336 0.03527294 -0.00038263746 0.07531211
0.15411474 -0.0011655961 0.042558003 0.10809032 -0.14312752 0.10267436 0.0053862003 -0.12647283
0.07158634 -0.0799988 -0.12803292 -0.056865588 0.02260954 0.100383475 -0.07689856 0.145877
-0.12366429 -0.12730299 0.06867762 0.16362442 0.13179283 0.12554574 0.010531508 -0.061868787
-0.1271286 -0.12412696 0.05396585 -0.012339862 -0.027656484 -0.03320728 -0.00042248427 -0.10173171
-0.0395115 0.14279355 -0.09253592 -0.012876888 -0.13744244 -0.06972114 0.05892101 0.07543702

bn1.weight f4 [400]
00000000: cd02 fe3f 812f 213f 7e8c 0e3f 6c8c 283f
00000010: 85b4 2d3f fae8 063f 7102 313f f3f4 973e
00000020: ccf6 ba3e 9710 ee3e ae9e 853f 328d fd3e
00000030: 2371 2d3f 2138 553f 20ae 133f d9b1 f73e
00000040: 0c44 173f 6e9e ac3f b482 e73f 05dd ef3e
00000050: af5f 0e3f 4395 0b3f 55f4 6c3f 61bb 103f
00000060: c737 183f e31e e23e abb2 153f b899 043f
00000070: 7468 773f ca1b a73e 0369 0b3f f459 033f
00000080: 27be 053f ebb1 2b3f f826 ee3e 42f0 c93e
00000090: 396d d93e 9957 0e3f 2fc2 243f 5cbc 3a3f
000000a0: 9e6d ff3e 335e 1a3f e68b e23e f6b8 123f
000000b0: 82bf 043f aea0 143f 5cbc e83e 298e 863e
000000c0: 495d ce3e acc2 e13e 949e d53f 22f5 1f3f
000000d0: 3065 e93e cb96 d93e 3e38 133f ca55 f63e
000000e0: 5ea0 3e3f ec78 ef3e ce40 aa3f 8d4f 353f
000000f0: ad92 273f 0bb2 013f 0f32 cb3e 7291 3c3f
00000100: 4b82 3b3f 073e d13e 9e9c f43e 87cf 273f
00000110: beb3 f63e b91b 313f 0064 113f 93a9 113f
00000120: b806 2e3f f54d b33e d2a4 073f 95a5 e23e
00000130: 08cf dc3e 814b ff3e 0b70 023f ec00 0e3f
00000140: c4d8 753e 8d03 093f 3413 a33e 64d9 f43e
00000150: dbdb 083f fc31 393f 08f4 2b3f 99e5 e93e
00000160: 2aa2 323f e701 e73e 314b 473f 8860 593f
00000170: 2c94 ef3e f9e6 163f 8f70 e73e 67c8 fd3e
00000180: 9d1e 143f fd75 023f e418 4e3f 9dc7 003f
00000190: 3a5a 4a3f ad3e 2e3f ca76 043f 8aae 263f
000001a0: b6aa a43e b43c 1e3f fee4 033f fd8c 2d3f
000001b0: 0411 0c3f e95f 263f 0e12 0b3f ae93 ef3e
000001c0: 525f 2b3f b185 0f3f 07f7 363f 3659 083f
000001d0: 4b86 043f 6a5b ec3e 760a 343f 724b b13e
000001e0: 5dbf d23e 420a e73e bfcb a93f b8c0 e83e
000001f0: a74b 283f f21d 1a3f 6b35 073f 70df 573e
00000200: a0d4 ca3e 5d0e d33e ad4f 123f 439e f83e
00000210: b998 083f c91d e13e 9b70 c43f ee2c 3d3f
00000220: 333f 003f ded6 ca3e 7bb5 033f aad3 903f
00000230: 1114 193f 2bfe ef3f 4e23 1f3f 8e56 0e3f
00000240: 6798 123f 5752 ed3e 81f3 c53e 6a31 f83e
00000250: cdf6 2a3f fe49 013f 0884 113f 7849 2b3f
00000260: 5e2f 033f 055f 0f3f 554a c83e e3e5 163f
00000270: 8022 173f 3f63 143f 3c4b 013f 8a9d 083f
00000280: 472c ed3e 19da 313f 43d7 113f 90bb e03e
00000290: 81fe c73e 90eb 173f dc93 643f d598 8a3f
000002a0: 7168 bd3e 6ae3 c73e 8280 0d3f 2f7c 3a3f
000002b0: 9ec7 203f 2c48 c83e dd7c 053f aa5d 953f
000002c0: 98cd b63f fc5e 673f f1a0 e43e c537 043f
000002d0: 8221 273f 299d 293f df16 0f3f 6a3c c53e
000002e0: e028 033f 1acc ec3e 8d3c 243f 6c0b 5a3f
000002f0: cfd2 283f 4f66 133f 3c24 1f3f c5c8 ca3e
00000300: 2e70 723e 5643 143f fdaa 943e d755 1b3f
00000310: 7339 2d3f 1506 053f 8420 f33e 0716 563f
00000320: 516e 2e3f d1f5 9b3e 25f6 223f 623b 083f
00000330: 078f 053f 1652 713f f4d9 b83e ff35 0c3f
00000340: ef60 d43e a21e 343f ec11 183f 9988 de3e
00000350: efda 343f 897b 003f 1d80 363f b6be 263f
00000360: 4f92 183f 8321 ff3e 6e01 0c3f 2921 0f3f
00000370: e65d d63e 2205 db3e 64e1 023f 74d8 0c3f
00000380: 0c64 013f 947b bc3e 8c6d a93e d0b9 013f
00000390: 9c60 143f 269c ed3e 0262 153f 27bf ec3e
000003a0: 4a6b ea3e ea89 da3e 80e5 293f d281 073f
000003b0: 699b 0a3f ecc5 e43e 4c4c 193f e136 203f
000003c0: a33f f83f c037 b63e 7b74 fa3e 5249 4a3f
000003d0: 239d 0d3f 98b7 083f 6794 063f 66bc d13e
000003e0: 6dc8 0d3f dac3 a33e 42a2 243f 5a39 0b3f
000003f0: ab96 4c3f 27f3 ee3e e7b3 0b3f db1f e33e
1.9844605 0.6296311 0.55683124 0.65839267 0.67853576 0.52699244 0.6914435 0.2967907
0.36516416 0.46497032 1.043905 0.49521786 0.6775076 0.8328877 0.5768757 0.48377874
0.59088206 1.3485849 1.8086762 0.46848312 0.5561475 0.5452463 0.9256032 0.5653592
0.5946011 0.4416419 0.5847575 0.51797056 0.9664376 0.3263839 0.5445711 0.5130913
0.52243274 0.67068356 0.46514106 0.39441115 0.42466143 0.55602413 0.643588 0.72943664
0.4988832 0.60299987 0.4424736 0.5731348 0.5185472 0.5805768 0.45456207 0.26280335
0.40305546 0.44093835 1.6689019 0.6248342 0.45585012 0.42497858 0.57507694 0.48112327
0.7446345 0.46771944 1.3301027 0.7082451 0.65458184 0.50662297 0.3968663 0.7365943
0.73245686 0.40867636 0.4777574 0.65551037 0.48184007 0.69182926 0.5679321 0.56899375
0.67979 0.35020414 0.5298587 0.44266954 0.43126702 0.49862292 0.50952214 0.55470157
0.24008471 0.53521043 0.31850588 0.47822106 0.5346047 0.72341895 0.6716924 0.45682982
0.6977869 0.4511864 0.7784911 0.8491292 0.46792734 0.58946186 0.45203063 0.49566957
0.5785921 0.50961286 0.8050673 0.50304586 0.79043925 0.68064386 0.5174376 0.65110075
0.32161492 0.61811376 0.5152129 0.67793256 0.54713464 0.649901 0.54324424 0.46792358
0.6694232 0.5606337 0.71470684 0.53261125 0.51767415 0.46163493 0.7032846 0.34627873
0.41161624 0.45125014 1.3265303 0.45459533 0.65740436 0.6020194 0.52815884 0.21081328
0.39615345 0.41221896 0.57152826 0.48558244 0.53358036 0.43968037 1.5346864 0.7389668
0.50096434 0.39617056 0.5144879 1.1314595 0.59796244 1.8749441 0.62163246 0.5560082
0.572638 0.46351883 0.3866234 0.484752 0.6678284 0.5050353 0.5684209 0.6690898
0.5124415 0.56004363 0.3911921 0.5894453 0.5903702 0.5796394 0.50505424 0.53365386
0.46322843 0.69473416 0.5696909 0.438931 0.3906136 0.59343815 0.89288116 1.0827891
0.36993745 0.3904069 0.5527421 0.7284574 0.6280459 0.39117563 0.5214365 1.1669209
1.4281492 0.9037931 0.4465404 0.516476 0.65285504 0.6625543 0.55894274 0.38522655
0.51234245 0.46249467 0.64154893 0.8517368 0.6594667 0.57577986 0.62164664 0.396063
0.23675606 0.57915246 0.29036704 0.60677856 0.67665786 0.51962405 0.47485745 0.8362736
0.6813708 0.3046098 0.63656837 0.5321561 0.5217137 0.9426588 0.36103785 0.5476989
0.41480204 0.7035924 0.59402347 0.4346359 0.70646566 0.501885 0.71289235 0.6513475
0.5959825 0.49830255 0.5468968 0.55909973 0.41868514 0.42777354 0.5112517 0.5501778
0.50543284 0.36813033 0.3309139 0.5067415 0.57959914 0.46408194 0.58352673 0.46239588
0.4578498 0.42683345 0.66365814 0.52932465 0.5414339 0.44682252 0.59882045 0.6258374
1.939442 0.3558941 0.48916993 0.7901813 0.55317897 0.5340514 0.52570194 0.4096405
0.5538395 0.3198536 0.64310086 0.54384387 0.799174 0.46669886 0.54571384 0.4436024

bn1.bias f4 [400]
00000000: 7e55 35be 823f 2abf e961 07bf 1edf febe
00000010: b7a0 88be f5e8 85bf dcef fdbe d233 0abf
00000020: 79a1 abbe 0194 0fbf 4f35 8ebf 6035 c8be
00000030: 19da 68bf bd21 75bf de3f 3ebf d6d6 5fbf
00000040: 4d74 82bf 3762 a3bf b7b9 a2bd 3c13 c8be
00000050: e07a 3fbf bf19 10bf 0e1d 56bf 919d 1cbf
00000060: d70f dbbd 6e7a 08bf 495b 4bbf 187a 5dbe
00000070: 12e1 56bf 7afc aebe 8ef3 aabe a367 a0be
00000080: 5fc2 43bf 5e9f 1ebf 2ea7 adbe f431 edbe
00000090: 6678 eebe 2521 66bf 3709 cbbe 0e2e 0a3f
000000a0: 1635 55bf 5856 13bf b8d6 3fbf f8ba 41bf
000000b0: 7dc6 0ebf f574 debe 11a2 d2be 3b0d d33b
000000c0: 8338 b3be ffc9 aebe 54d9 64bf b674 e2be
000000d0: d018 e8be 234c 70bf b4b8 63bf f14d 2cbf
000000e0: 2844 c5be 911f 69be 0ac1 c5bf 236d 46bf
000000f0: f960 50bf 25e4 0abf bf8f d9be 94e5 01bf
00000100: 46b3 f8be b044 8ebe 236a 01bf dcf7 6cbf
00000110: be46 0abf 5420 0ebf b9dd 2ebf e532 f9be
00000120: 582f 64bf c75f f2be 23e5 10bf 031b 26bf
00000130: 97b4 08bf 8f51 4dbf d6fb 0fbf b538 49be
00000140: 7a3f 17bd 4053 20bf 1c66 edbe 6512 05bf
00000150: 8cf5 bebe 16a7 e5be 7757 73bf 7983 ffbe
00000160: 5267 12bf cb5a e3bd ab7a 6bbf 2e01 62bf
00000170: d360 89bf 7697 12bf 8815 7cbe c290 6ebf
00000180: 7785 5cbf d9b3 74be a07d 0bbe 0a9d 0abe
00000190: a972 c6be 7249 32bf ba2e 22bf 376e 1fbf
000001a0: 009c adbe dd87 37bf a450 34bf feb3 3fbf
000001b0: 8197 99bf 697e 18bf 15ad f6be fb67 16bf
000001c0: e228 3dbf 9ca0 40bf e730 32be 12ed a53d
000001d0: ec1b 3cbf c1cd 0dbf 0f6f 2abe d4fd 2bbe
000001e0: 3664 75be 359f 7dbe baf5 16bf 55fd efbe
000001f0: 5fa5 48bf fccb 82bf 4b71 09bf 0a15 e43d
00000200: 8038 4bbe 64ad e6be fa1d 4fbf 6d66 cfbe
00000210: 9363 12bf e293 0bbf 1fe5 1dbf 4bbb 7abf
00000220: 1396 1bbf dde1 05bf ab41 6dbf 1ac6 8bbf
00000230: c66b 28bf a685 c2bf 9d51 fabe d2df 95bf
00000240: 1edb 10be 0f4e 3ebf 7b00 85be f238 07bf
00000250: 2411 32bf bffe 2bbf 1ff0 10bf 9a95 0ebf
00000260: 9d4b 2dbe c17c ddbe 6c1c 20bf 8827 c6be
00000270: c6d5 1abf d01f 45bf 8a25 98bf e66d 2dbf
00000280: f460 9ebe d3a6 11bf b431 8bbf 53c6 dbbe
00000290: c50f f7be 4561 1bbf 4476 51bf 0b41 97bf
000002a0: d285 ebbe 23b8 debe 7201 3dbf 8e5e 46bf
000002b0: df18 67bf 3e33 78be db4f 52bf 608f e1be
000002c0: 5aac 55bf 89fd c0be fce2 27bf 4d41 81be
000002d0: c2fa 42bf 296c 3dbf 1eda 70bf 7b2d e6be
000002e0: 52a1 5abf fae6 52be 0c65 5abf 8f08 3abe
000002f0: fd25 3dbf 29ab d1be 20ef ddbd d080 bbbe
00000300: 0c0d 06bf 5b84 88bf 5053 90be 0fa5 4cbf
00000310: 7d1f 8cbf 4646 5cbf eaa1 23bf 48ff 38bd
00000320: 3ab3 d1be e0be 71be 0d04 83be 9ef5 1dbf
00000330: 6ac0 01bf ed94 84bf 995f cabe fcc7 09bf
00000340: 27ad f6be 2fd4 44bf 15f2 d8be d2ef f73c
00000350: 88f3 a0bf e18a 30bf a052 01bf 7f0d 29bf
00000360: f4ed 20bf e56e acbe d3be 64bf cdef 60be
00000370: d45d febe 062d 33bd d9b9 94be 67ef 54bf
00000380: 2e32 20bf 9cac 17be 5a66 cabe 3e80 d4be
00000390: 970e 17be ca9a 43bf 83a8 f6be fb63 2abf
000003a0: 0783 14bf e9d1 a5bd 4036 c1be 17a0 12bf
000003b0: 0c3e efbe e043 bebe d07d 1ebf 2080 8cbf
000003c0: 5899 0dbf 02ab b3bd 8ecf 38bf 0ea3 07be
000003d0: 2baa 4dbf f079 8ebf d8bd 21bf 2e2f 08be
000003e0: 8c0c 3abf 75e9 4cbe 332f 97bf 4e4d 20bf
000003f0: 171a 7dbf c61c 81bf 885b 96bf d092 ebbe
-0.17708394 -0.66503155 -0.52883774 -0.497796 -0.26685116 -1.0461718 -0.4959706 -0.5398532
-0.3352163 -0.5608521 -1.1110018 -0.39103222 -0.9095779 -0.95754606 -0.74316204 -0.8743719
-1.0191742 -1.2764348 -0.079455785 -0.39077175 -0.7479687 -0.56289285 -0.83638084 -0.6117793
-0.106963806 -0.5331181 -0.79436165 -0.21628606 -0.8393718 -0.34177 -0.33388942 -0.3132907
-0.7646846 -0.61961925 -0.3391661 -0.46327174 -0.46576232 -0.89894325 -0.39655468 0.53976524
-0.8328413 -0.57553625 -0.7493701 -0.75675917 -0.5577162 -0.43448606 -0.41139272 0.006440786
-0.35004053 -0.34138486 -0.89394116 -0.44229668 -0.4533143 -0.93866175 -0.8895371 -0.6730643
-0.38528562 -0.22765948 -1.5449536 -0.7751028 -0.8139797 -0.5425437 -0.42492482 -0.50740933
-0.48574275 -0.2778678 -0.50552577 -0.92565703 -0.54014194 -0.5551808 -0.6830707 -0.48671642
-0.8913474 -0.47338697 -0.56599635 -0.64884967 -0.5340056 -0.80202574 -0.56243646 -0.19650538
-0.03692577 -0.6262703 -0.46366966 -0.5198119 -0.37296712 -0.4485404 -0.95055336 -0.49904993
-0.57188904 -0.11101302 -0.9198405 -0.8828305 -1.0732673 -0.5726236 -0.24617589 -0.9318963
-0.8614115 -0.23896731 -0.13622141 -0.13536468 -0.38759354 -0.6964332 -0.6335255 -0.6227755
-0.3390808 -0.71691686 -0.7043555 -0.7488402 -1.199936 -0.59567887 -0.48178926 -0.5875241
-0.7389051 -0.7524507 -0.17401467 0.08101858 -0.73480105 -0.5539208 -0.16643928 -0.16796046
-0.23964009 -0.24767764 -0.589687 -0.46872965 -0.78377336 -1.0218501 -0.53688496 0.111368254
-0.19845772 -0.45054162 -0.80905116 -0.40507832 -0.5718319 -0.54522526 -0.61677736 -0.97942036
-0.6077587 -0.52297765 -0.92678326 -1.0919831 -0.6578945 -1.5197036 -0.4889039 -1.170893
-0.14146087 -0.7433786 -0.2597693 -0.52821267 -0.69557405 -0.67185587 -0.56616396 -0.55697024
-0.16923375 -0.43259242 -0.6254337 -0.38702035 -0.6048244 -0.7700167 -1.1886456 -0.67745817
-0.30933344 -0.5689518 -1.0874543 -0.42924747 -0.4825422 -0.60695297 -0.81821084 -1.1816725
-0.46000534 -0.4349986 -0.7383033 -0.7748803 -0.90272325 -0.24238297 -0.821531 -0.440547
-0.8346611 -0.37693432 -0.65580726 -0.25245133 -0.76163876 -0.73993164 -0.9408282 -0.44956574
-0.85402405 -0.20595923 -0.85310435 -0.18167327 -0.7388609 -0.40950897 -0.10836625 -0.36621714
-0.5236366 -1.0665392 -0.28188562 -0.7993936 -1.094711 -0.8604473 -0.63918936 -0.04516533
-0.40957052 -0.2360797 -0.25589028 -0.6170291 -0.50684226 -1.0357949 -0.3952606 -0.53820777
-0.4817898 -0.76886266 -0.42372194 0.030265722 -1.257432 -0.6896191 -0.505167 -0.6603622
-0.6286309 -0.33678356 -0.89353675 -0.21966477 -0.4968096 -0.04374411 -0.2904804 -0.831778
-0.6257657 -0.14811939 -0.39531213 -0.4150409 -0.1475166 -0.76408064 -0.4817544 -0.6655881
-0.5801243 -0.08096678 -0.37736702 -0.5727553 -0.46727026 -0.3716116 -0.61910725 -1.0976601
-0.5531211 -0.087728515 -0.72191703 -0.13245794 -0.8033778 -1.1130962 -0.63180304 -0.13299248
-0.72675395 -0.20010932 -1.1811279 -0.6261796 -0.98867935 -1.0086906 -1.1746683 -0.46010447

bn1.running_mean f4 [400]
00000000: 7d3c 4b3e be70 21c0 f817 ffbe ed0b c63f
00000010: ba1c 9cbf 180f 9b3e 8f50 04c0 527e 993d
00000020: 9d96 1f40 9e64 14c0 2e65 b13e 3176 6f3f
00000030: 01c6 f53d 0da0 6c3f abb8 a63e 110b d93f
00000040: c472 dc3f 91bc 50be d90f 13bc d7f5 3c40
00000050: 937e fbbf e1b3 e2bd 8385 2c3d 4a23 63c0
00000060: 0b75 e13e 4628 603e 2fc6 84bf 4ac6 30c0
00000070: d20f 943f 699c ca3f 756a 19c0 5941 463f
00000080: 4463 3a40 fe41 28be 71e4 92c0 6df6 8a3f
00000090: 5bf7 2c3f 8a9d 72bf 3f8b 1fc0 f61a 233f
000000a0: 5b5e 8640 f38a fb3d 1af8 6e40 b997 fc3f
000000b0: 498c d7be a299 83bf 69aa 88bf ac5d 5ebf
000000c0: ee96 4dbf 7a4d 00bf 9ad5 ce3e c781 a3bf
000000d0: 0bed e63f e568 f9bf 1911 8cbe 3c1a 8940
000000e0: 3906 f7bf 50aa ff3f 67e2 7fbe 9770 06c0
000000f0: aaab 783e 932f 52c0 d9b0 d9bf f6d3 42c0
00000100: d50d e9be 01f2 42be 098d b03f defe dbbe
00000110: 1608 0240 af60 743f f8ce fabf 4ea9 8dbf
00000120: 2fa5 483f c168 21bf ede8 adbe 91a5 09c0
00000130: 6ecb 55c0 a3bb 9dbe fc21 863e 28eb f7bf
00000140: 483e 85bf 8fd7 1bc0 23dc 56bf 59f5 f63f
00000150: a58d b0c0 923e 8d3f fec4 ec3f adbd fabd
00000160: d33f 0c3e 1563 63c0 9655 1c3f 4b1b e6be
00000170: ab35 8ac0 62c2 1f40 964f b2be 814a 21bf
00000180: 0d15 79bf 01c3 913f a641 5bbf 3a68 82c0
00000190: 283e 2b3e 8827 0ebd 4f40 b23f e0b7 a0c0
000001a0: 88d4 3c3e ef60 61c0 d729 4fbf 3093 2cc0
000001b0: dda0 0a40 88fc 5ebf 8f49 2bbf 98f6 d8bf
000001c0: e08d b3be 99df e4bf a010 153f 1a19 90c0
000001d0: ec34 93c0 6ce9 7f3f dc42 93c0 3e9e 11c0
000001e0: b3a7 07c0 9f86 aebf 406a 063e 9e98 8cbf
000001f0: 13a0 ecbc c13d 0dc0 0172 5f40 8557 53c0
00000200: c6ab 153f 438f 0bc0 1bdb 64bf 97eb 65bd
00000210: f2fc 2bbf 6b7a 0740 35d0 c13d 2a76 453e
00000220: cf3e c03e 1e47 b53f 2b1f 763e 7f84 953e
00000230: a731 4c40 5c01 bb3d 08eb 66c0 9ab4 49c0
00000240: 5996 69c0 3ac7 b43f 465a fa3e 216b a4be
00000250: 1bfc 2cc0 576d 81bf d4a0 773f 5c1b 2f40
00000260: cc2b efbf 9f2e 86bd 8960 84c0 6892 653e
00000270: b992 adbf ed11 cfbf 9625 073f 93dd 38bf
00000280: 7d81 d6bf 1bff 58bd 4257 80c0 c6d1 4d40
00000290: 1639 fc3f 8e6a 503f 9f04 8dbe bde6 99bd
000002a0: 725a 85bf be07 323f 2eb7 2640 3466 663e
000002b0: c0bb ac3f 7f64 b9bf 5564 3ebf 225d 15be
000002c0: 86f5 debd 9fd5 693e 1096 8fbf e8f4 7e3f
000002d0: 9bff c13e d1d3 7040 52e3 313f 0d44 58bf
000002e0: b898 a13f 8168 27c0 5ce3 2040 3278 19bf
000002f0: 39d1 cc3e 5fcf b33f 82c8 eebe 6173 dabf
00000300: 186f 1fc0 1f12 1fbf aeb0 2bbf 8750 0ac0
00000310: f536 8dbf 570f b83e 4d35 983f 0adf 003f
00000320: 0e25 54bf 3d80 3140 38e2 923f a2a3 5fbf
00000330: 6a90 2bbf 5336 103f 9f0b c5bf fa96 763f
00000340: 4cf9 39c0 0a8e 6c3e aa8d 5fc0 8678 ee3e
00000350: 55da 4c3f 8466 10be a6b5 82c0 8e47 e4bf
00000360: 7206 1440 1748 1640 16ba 0fc0 4767 4340
00000370: bb1b 94bf a0c4 bb3f 3c00 03c0 f193 76c0
00000380: 96db 6cc0 bfb1 f83f 7c2c b8bf 5026 f6bf
00000390: c23c 0ec0 3dc1 4340 3436 a6bf 3b78 6dbd
000003a0: 69f8 0ec0 a265 f63f 493d 22bf 9c73 f0bf
000003b0: 5886 fd3f f172 70bf 9d3a 96bf b6bf 8840
000003c0: 05ec 6abd 8d1c 3540 cd0c 68c0 6446 823f
000003d0: 07fe e9be 6240 883f 77ed 36bf 1990 093f
000003e0: 79f8 c63f 3d6b 3d3f 751f d43f f54c 293f
000003f0: 218a d5be 3393 4abf 1bc9 83c0 2558 0240
0.19847293 -2.5225062 -0.49822974 1.547239 -1.2196267 0.30284953 -2.067417 0.07494797
2.4935677 -2.3186412 0.34647506 0.9353972 0.12000657 0.9243172 0.32562765 1.6956502
1.7222524 -0.20384432 -0.008975946 2.9525049 -1.9648002 -0.110694654 0.042119514 -3.5490289
0.4403461 0.21890363 -1.0372981 -2.7621026 1.1567328 1.5828983 -2.3971226 0.7744346
2.9123087 -0.16431424 -4.590386 1.0856453 0.67564934 -0.94771636 -2.492874 0.63713014
4.199018 0.12282362 3.733893 1.9733802 -0.42099217 -1.028126 -1.0677005 -0.8686168
-0.80308425 -0.5011822 0.4039734 -1.277398 1.804109 -1.9485136 -0.27356794 4.2844524
-1.9298774 1.997385 -0.2498871 -2.100622 0.24284235 -3.2841537 -1.7007095 -3.044187
-0.45518366 -0.1903763 1.379304 -0.42967886 2.0317435 0.9546003 -1.9594412 -1.1067293
0.7837705 -0.63050467 -0.3396677 -2.1507304 -3.3405414 -0.30807218 0.26197803 -1.9368639
-1.0409632 -2.4350317 -0.8392965 1.9293624 -5.5172906 1.103472 1.8497617 -0.12243209
0.13696222 -3.5529225 0.61068094 -0.44942698 -4.3190513 2.4962392 -0.34826344 -0.6300431
-0.97297746 1.1387635 -0.85647047 -4.075223 0.1672293 -0.03470567 1.3925875 -5.0224457
0.18440449 -3.5215414 -0.8092322 -2.6964836 2.1660683 -0.8710408 -0.66909117 -1.6950254
-0.3506918 -1.7880737 0.5822849 -4.503064 -4.60021 0.9996555 -4.6019115 -2.2752833
-2.1196105 -1.3634833 0.13126469 -1.0984075 -0.028884923 -2.2068942 3.4913332 -3.3022168
0.5846523 -2.180619 -0.8939683 -0.05613288 -0.6718284 2.1168468 0.094635405 0.19283357
0.3754792 1.4162328 0.24035327 0.2920265 3.1905305 0.09131119 -3.6080952 -3.151648
-3.6498015 1.4123299 0.48896998 -0.32112983 -2.7028873 -1.0111493 0.9672978 2.736045
-1.8685241 -0.06551861 -4.136784 0.22419131 -1.3560401 -1.6177346 0.52791727 -0.72213095
-1.6758267 -0.052977663 -4.0106516 3.2159286 1.9704921 0.8141259 -0.27542588 -0.07514713
-1.0418227 0.69543064 2.6049304 0.22499925 1.3494797 -1.4483794 -0.74371845 -0.14586309
-0.10886674 0.22835396 -1.121767 0.9959245 0.37890324 3.7629282 0.6948749 -0.8447884
1.2624731 -2.6157534 2.513877 -0.5994903 0.40003374 1.404766 -0.4663735 -1.7066461
-2.4911556 -0.62137026 -0.67066467 -2.161165 -1.1032397 0.35949203 1.1891266 0.5034033
-0.8286904 2.773452 1.1475286 -0.8735906 -0.67017233 0.5633289 -1.5394171 0.9632412
-2.9058409 0.23101059 -3.4930215 0.46576327 0.8002065 -0.14101607 -4.084674 -1.7834337
2.3128934 2.34815 -2.2457328 3.0531785 -1.1570963 1.466938 -2.0468893 -3.8527796
-3.7009025 1.9429244 -1.4388576 -1.9230442 -2.2224584 3.0586693 -1.2985291 -0.05797599
-2.2339118 1.9249766 -0.63374764 -1.8785281 1.9806623 -0.93925387 -1.1736637 4.273402
-0.057353992 2.8298676 -3.6257813 1.0177732 -0.4570162 1.0644648 -0.7145609 0.537355
1.5544578 0.7399176 1.65721 0.6613305 -0.41706946 -0.7913086 -4.118299 2.03663

bn1.running_var f4 [400]
00000000: b5c2 0542 4c52 2942 9647 b642 4334 1743
00000010: ea63 8142 1e49 d042 87e0 4542 f69c 2542
00000020: f198 ab42 8393 9742 a274 a242 5172 3b42
00000030: 9900 9e42 0173 4342 81da 8e42 0d7d ee42
00000040: bf6c 3d42 3931 d741 c44f 8a41 d389 b142
00000050: cc28 a941 1f17 bd42 a0aa f341 1359 aa42
00000060: 8361 4942 c026 d542 bf6e c142 aecb 1642
00000070: 1c82 f242 1325 8942 2c99 8b42 2f57 ef41
00000080: 6218 0f43 fb20 d741 5bf0 8942 5893 6142
00000090: f350 2b42 a30b 7142 d173 0c42 c19f 1343
000000a0: 5207 5e42 bd60 1742 ff90 4642 138a b942
000000b0: f6df 7242 871e 3142 3968 0a42 f228 d642
000000c0: a951 8b42 b75a ff41 02db e441 6185 8d42
000000d0: 7307 3b42 870e aa41 a3f5 5442 58c0 9342
000000e0: 651f 0f42 b88e d742 3365 c041 fb74 7b42
000000f0: c9e9 3d42 bdea 7642 e805 8042 0b94 0442
00000100: e28d 5142 559c 1e42 d6cf c942 c033 8342
00000110: 02da 7542 3e2a bc42 9c61 7842 b4b4 8b42
00000120: 792f ff42 69ef d841 f2e9 6b42 9cf0 5742
00000130: 87d5 da42 895c 5742 e4c8 4d42 e7f9 2d42
00000140: 2110 7342 20ef 4442 74d5 be41 3c99 1d42
00000150: 0eea ce42 4d25 e142 1d45 4942 4429 2f42
00000160: e8d7 5142 9ddd d742 18ad 2742 7af6 0443
00000170: 7018 9a42 e893 d242 68a0 3142 5847 1a43
00000180: bafa d142 7165 6742 3c38 1b42 5314 0643
00000190: 6869 ad41 4de7 2742 e59c 3942 adae 8d42
000001a0: 1e1f 6d42 8751 3a42 c543 a541 db74 3a43
000001b0: fb72 2c43 3b24 1d42 428b 9542 6e0d 0a42
000001c0: f36d 9b42 4185 cb42 ce32 0b43 d310 cf42
000001d0: 7dae 7942 28da 4742 bb67 7542 22bf b842
000001e0: 2e86 d841 c51c 5d42 39c2 6541 252f 5042
000001f0: d17a 4842 614f 3643 9d65 ac42 24a1 cc42
00000200: 4a30 5242 0a66 1942 69c3 9742 8907 5b42
00000210: fc66 9c42 f1f4 6f42 97b9 8e41 d06e 0542
00000220: b49d 1a43 608f d441 9ab5 3f42 ec8c 4942
00000230: 8610 ce42 3420 e841 266d 0243 649a 0b43
00000240: 3474 c942 81b8 c142 b226 2642 dea1 6142
00000250: 9c44 0a42 3158 3d42 7dab a841 509a 8842
00000260: a177 a542 3cbd 8c42 eff9 f341 58f6 1342
00000270: 6552 5042 04b2 2f42 1a01 bf42 892c 0b42
00000280: bb9c 2942 3d4b 8d42 0e61 0843 def8 3a42
00000290: 3f95 8642 45b5 d642 ce2d 0c43 0b34 ca41
000002a0: 634d 1942 b59f 2e42 9bb8 8f42 815d 8042
000002b0: a209 0c43 adce 3842 5202 4542 e295 8641
000002c0: 5183 ab41 8fb7 b241 5c27 8842 d083 0942
000002d0: 0ca8 7e42 d1b6 9242 d2e8 8442 154b 0c42
000002e0: a22e b042 4f90 9842 ec03 1d43 8d0b d541
000002f0: 349b 1a43 474e 0a42 281a 5842 47b1 7242
00000300: 2e77 8042 191d 0343 ae4b 3042 97ae c241
00000310: 7778 f342 4153 8b42 fe99 bc42 d781 2742
00000320: 328b a542 e024 7342 90f1 7142 5555 6442
00000330: baec 6142 bda1 3f43 72d6 9141 fbf3 2f42
00000340: f0d1 d041 dd16 7e42 723b d641 1e57 6c43
00000350: a102 3143 0794 4442 a19e 1b42 2d3e 1f42
00000360: ce1e 6142 3663 0543 6c2a 4642 af05 ee42
00000370: eb2c 1f42 170a cc42 ec24 9942 8974 0343
00000380: c1eb 7742 3f0c 7742 05ad 8d42 b3f1 4242
00000390: 6c6b 1b43 8d17 6342 e720 4f42 2dbb 1743
000003a0: 9fc6 0e43 97eb b442 fc0e 4342 bb7c 8e42
000003b0: a7c1 5c42 cf31 eb42 363b c342 9429 3642
000003c0: 71e0 9c41 3879 8c42 146f ba42 05bf 1c42
000003d0: f293 cc42 1209 3b43 f5a0 5342 da77 3c42
000003e0: b6d5 9c42 3377 be42 df56 0f43 a8da 8542
000003f0: 7e8a 3f43 4a82 ea42 f2c9 3743 5429 9e42
33.440144 42.330368 91.13982 151.20415 64.695145 104.14281 49.469265 41.403282
85.79871 75.78811 81.2278 46.861637 79.00117 48.86231 71.426765 119.24424
47.356197 26.899035 17.288948 88.76919 21.14492 94.54516 30.458313 85.17397
50.345226 106.57568 96.7163 37.698906 121.25412 68.57241 69.799164 29.91757
143.09525 26.891104 68.969444 56.39389 42.829052 60.261364 35.113102 147.62404
55.50715 37.84447 49.641598 92.76968 60.71871 44.27981 34.60178 107.07997
69.65949 31.919294 28.606937 70.760506 46.757275 21.257093 53.23988 73.87567
35.78066 107.77875 24.049414 62.86424 47.478306 61.729237 64.011536 33.144573
52.388557 39.652668 100.90593 65.601074 61.4629 94.082504 62.09532 69.852936
127.59272 27.1169 58.978462 53.98497 109.417046 53.840366 51.446182 43.494045
60.76575 49.23352 23.854225 39.399643 103.45714 112.57285 50.317493 43.7903
52.460846 107.93284 41.919037 132.9628 77.04773 105.28888 44.406647 154.27869
104.9897 57.849064 38.804916 134.07939 21.676468 41.97588 46.403217 70.84116
59.280388 46.579617 20.65809 186.45647 172.44914 39.28538 74.77199 34.513115
77.714745 101.76026 139.19846 103.53286 62.4204 49.963043 61.3513 92.37331
27.065517 55.278095 14.359918 52.04604 50.119938 182.31007 86.19846 102.31473
52.547157 38.349648 75.88166 54.75736 78.20114 59.9892 17.84062 33.358215
154.61603 26.570007 47.927345 50.38762 103.03227 29.015724 130.42636 139.60309
100.72696 96.86036 41.53779 56.408073 34.567 47.336124 21.083735 68.30139
82.73365 70.3696 30.497038 36.99057 52.080463 43.923843 95.50215 34.79349
42.403057 70.64695 136.37912 46.743034 67.2915 107.35404 140.17892 25.275412
38.325573 43.655964 71.86056 64.182625 140.03763 46.20183 49.252266 16.823185
21.43912 22.339628 68.07687 34.378723 63.66411 73.35706 66.45473 35.073322
88.09108 76.28185 157.01532 26.63064 154.60626 34.576443 54.025543 60.673122
64.23277 131.11366 44.073906 24.335249 121.73528 69.662605 94.300766 41.876797
82.771866 60.78601 60.4859 57.083332 56.48118 191.63179 18.22971 43.988262
26.102509 63.522327 26.779026 236.3403 177.01027 49.144558 38.90491 39.81072
56.280083 133.38754 49.541428 119.0111 39.793865 102.01971 76.57211 131.45522
61.98023 61.76196 70.83793 48.736034 155.41962 56.773 51.78213 151.73116
142.77586 90.46014 48.764633 71.243614 55.189114 117.59728 97.61565 45.540604
19.60959 70.236755 93.21695 39.186543 102.288956 187.03543 52.907185 47.117043
78.417404 95.23281 143.33934 66.92706 191.54099 117.25447 183.78885 79.08072

fc2.weight f4 [300, 404]
00000000: 52c8 c3bc c1d1 2bbd ba38 36bd aa21 d33c
00000010: 462b 31bc a09b 763c eaaf 7ebd 0c60 6fbd
00000020: e65b 28bd 0d21 77bd 3dc7 50bd 0c3f f13b
00000030: 2f6c 5abd 6ed0 42bd c2d8 7fbc df5e 69bc
00000040: 0fb4 eebc b18f aebc a880 82bd 4a1d 4ebd
00000050: 5c9e 37bd 260e bd3c be5e a3bc c0f4 b2bc
00000060: 7896 3fbd 2c8c b1bb 2c12 99bc 8421 45bd
00000070: c37d 763c eca7 4dbd a76e f3bc 044f 59bd
00000080: 0af4 2abd ae7a 14bd ae33 58bc a55b fdba
00000090: e5f1 2abd 8c74 143c 474e 15bd 4922 24bb
000000a0: 88fc 75bc b918 993c f0ae 533d e991 70bc
000000b0: 5cd5 22bd fe29 88bc c4b9 6ebb 80f4 ec3c
000000c0: 883a a7bb f83f 62bd 7e52 fe3b 1faf 00bd
000000d0: 0c0d 093d df56 08bd 01d2 3abd 4567 023d
000000e0: 291e f63c 0c9f 203d a5d2 9b3c 4982 cebc
000000f0: 98b9 d4bc d2dc 9a3c 28c9 1bbd 6325 b73a
00000100: 201d c6bc 4a78 c63c b3d2 043d bd93 923c
00000110: 2235 60bd ee46 4bba ee09 72bd 4cb1 56bd
00000120: d09a 92bc afcf e8bc bf4e ffbc 581b 86bc
00000130: 0698 0dbd 18d7 063c fe1a f3bb 519f 6fbd
00000140: 8fc6 d4bc 1a68 05bd 2be7 bbbc ad44 303d
00000150: 4710 22bc d620 24bd ea89 113d 4e15 c23c
00000160: 30e2 273d 3d76 d13c a1ed 64bd 9578 e9bc
00000170: 2d30 15bd a103 49bd 0f5b 7cbd 0cd1 073d
00000180: 5025 363d b1fe cfbc b1ae eebc 5726 bbbc
00000190: 18e1 2dbd 8e9b 7abd 19dc de3a 7508 e3bb
000001a0: 9e17 40bc 4bc7 c1bc be0e 8bbd 4bcf aebc
000001b0: 13ca e13c 8449 8b3c 9c74 50bc ed30 50bd
000001c0: 86bd d2bc 4bca ea3c 6825 85bd 21fb a6bc
000001d0: 16c8 9bbc e8a4 4abd 3122 8b3c 8a43 ce3c
000001e0: 0ecf 273d 543b 083c 4f8b 26bd 391b 82bb
000001f0: 0631 62bd e876 10bd 6036 113d 3580 16bd
00000200: 533a 42bd 2e90 1f3d 9405 003d eaff 22bb
00000210: 4666 8cbc 2c0b eabc 6385 953b c3c2 70bd
00000220: f5c6 08ba 149e 47bc d759 e9bc c4f2 d5bc
00000230: 3f41 b8bc 2f74 8abd 54c0 3abd b780 5bbd
00000240: c162 91bd 898c 0abc ed21 75bc 8ff0 f93c
00000250: 6a8b fbbc 3366 a93c bf7a 183d c293 2a3d
00000260: 0cdd 943c e760 08bd c180 40bd 0d59 edbc
00000270: 4771 4d3c 692e 7cbd f24c 83bc f018 34bd
00000280: 18d6 183d 71e5 fdbc 1866 a9bc 46f7 0cbc
00000290: b4b0 a03c c9d0 59bd 887f fabc 1860 86bd
000002a0: 03c5 c93a 0467 ad3c 62ca 2bbd f772 66bd
000002b0: 4aa1 da3c 315a 323c 502c cebb 11bc 3b3c
000002c0: d4be 87bd 67c7 3cbd 340c d73c 4893 94bc
000002d0: 7804 2c3d 5048 d8bc 61fc 3dbd f6a3 c03b
000002e0: 2c37 05bd ff7d 52bd c95d eb3c a2f8 71bb
000002f0: 1344 72bb 6413 843b 8b42 67bc e49c df3c
00000300: 4208 9b3c aad4 ee3c f39c 70bc 1be0 b33c
00000310: 0525 8cbb d770 663c 0162 81bc f192 2dbd
00000320: a6f2 f0bc 4287 0dbd 4550 e2bc 5c06 96bd
00000330: 13a6 85bc 2e33 b7bc 0ca5 c03c f932 f5bb
00000340: 0cdf a63c 89fc b83b 465b 48bd 9c7c 24bd
00000350: e28e 9e3c e5ac 143d 725f 0d3d 3a07 9cbc
00000360: 879e 76bc 370a d2bb 4ff2 38bc de68 d6bc
00000370: f2a4 0f3d c058 e7bb 72d2 84bc 4c85 753c
00000380: 7c8b a2bc 92a9 f9bb 99b7 3fbd d57e 8cbd
00000390: 69d5 e63c e2eb 1cbd 0e0c 933c be51 b6bc
000003a0: 8460 ed3b b879 be39 9cc5 2ebd 452b 69bd
000003b0: 5502 88bd 795b 84bd 5e5e 0cbd 6975 b9bc
000003c0: e45e d03c 10c3 3d3c 5232 553b 73a3 5cbd
000003d0: 2062 b1bb 7e14 6d3c 40ea 39bd b8c6 99bd
000003e0: d272 81bd 90cc 3d3c 4b79 ca3c f8a1 bb3c
000003f0: 9c0c 22bd 9df7 babb 2baf bdba e4bd 273d
-0.023899231 -0.041948084 -0.044487692 0.025772888 -0.01081354 0.015051752 -0.062179483 -0.058441207
-0.041103266 -0.060334254 -0.05097126 0.007362252 -0.05332583 -0.047562055 -0.015615644 -0.01424381
-0.029138593 -0.021308752 -0.063721955 -0.0503209 -0.044828758 0.023078036 -0.019942638 -0.021845222
-0.046774358 -0.005418321 -0.018685423 -0.048127666 0.015044632 -0.05020897 -0.02971585 -0.05305387
-0.04173664 -0.03624981 -0.013195915 -0.001932968 -0.041734595 0.00906099 -0.036451604 -0.002504485
-0.015013821 0.018688546 0.051680505 -0.014683225 -0.039754257 -0.016621586 -0.0036426643 0.02892518
-0.005103413 -0.055236787 0.0077612987 -0.03141701 0.033459708 -0.03328597 -0.04561043 0.031836767
0.030043678 0.03921418 0.019021342 -0.02520861 -0.025967404 0.018904123 -0.038033634 0.0013972934
-0.02418381 0.02422728 0.0324275 0.017892713 -0.05473817 -0.0007754405 -0.0590915 -0.052415177
-0.017896086 -0.028419344 -0.031165479 -0.01637046 -0.03456881 0.008229993 -0.007418989 -0.058501545
-0.025973586 -0.032569982 -0.022937378 0.043034244 -0.009891576 -0.040070377 0.035531916 0.0236918
0.040987194 0.025569076 -0.055890683 -0.02849988 -0.036422897 -0.049075726 -0.061610278 0.033158347
0.044469178 -0.025390001 -0.029136034 -0.02284543 -0.042450994 -0.061183505 0.001700285 -0.0069284984
-0.011724381 -0.0236546 -0.06789921 -0.02133908 0.027562177 0.017002828 -0.012723114 -0.05082791
-0.025725137 0.028660914 -0.06501275 -0.02038342 -0.019016307 -0.049473673 0.016984077 0.02517869
0.040968947 0.008314926 -0.0406602 -0.0039705303 -0.055222534 -0.035269648 0.035452247 -0.03674336
-0.047418904 0.03895586 0.03125532 -0.0024871775 -0.017138612 -0.02856978 0.00456302 -0.05877949
-0.0005217635 -0.012183685 -0.028485222 -0.026116736 -0.02249205 -0.067604415 -0.045593575 -0.05358955
-0.07098914 -0.008456358 -0.014961702 0.030510215 -0.030706126 0.020678615 0.037226435 0.04164482
0.01817181 -0.03329554 -0.04699779 -0.028973127 0.012539214 -0.061567698 -0.016027901 -0.043969095
0.03731355 -0.030993195 -0.020678565 -0.008603876 0.019615509 -0.05317763 -0.03057839 -0.06561297
0.0015393797 0.021167286 -0.041941054 -0.056261983 0.026688237 0.010885761 -0.0062919036 0.011458413
-0.066281945 -0.046088602 0.026250936 -0.018136635 0.04199645 -0.026401669 -0.046383265 0.0058789207
-0.03252332 -0.05138969 0.028731244 -0.0036921878 -0.0036966845 0.004030632 -0.014114986 0.027296491
0.018924836 0.02915414 -0.014685857 0.021957448 -0.004276874 0.014064989 -0.015793802 -0.042376462
-0.029412579 -0.03455282 -0.027626166 -0.07325432 -0.016314542 -0.022363272 0.0235162 -0.007482883
0.020370029 0.005645339 -0.04891517 -0.0401579 0.019355241 0.036297698 0.034514852 -0.019046415
-0.015052444 -0.006409909 -0.01128824 -0.026173051 0.035069413 -0.0070601404 -0.01621363 0.014985394
-0.019841902 -0.0076190913 -0.04680595 -0.06860129 0.028177934 -0.038310893 0.017950084 -0.022255775
0.0072441716 0.00036330312 -0.042668924 -0.05692603 -0.0664107 -0.064627595 -0.034269683 -0.022638993
0.025435872 0.011582151 0.0032531214 -0.053866815 -0.0054133087 0.014470218 -0.045389414 -0.07508606
-0.06320728 0.011584416 0.02471604 0.022904381 -0.039562806 -0.0057057873 -0.001447176 0.04095258

fc2.bias f4 [300]
00000000: 65d5 9dbd 6f0c 59bd 5fac a3bd 591e 29bd
00000010: f3eb 98bd 3ad1 e7bd 9a0a f8bc 2d20 e2bd
00000020: 7a4a 313f 4e40 89bd 9502 f7bd 9e02 80bc
00000030: c038 653f 6c8d c43e 9ef9 4abd 6ffd 2c3a
00000040: da43 9abd f3b7 3dbd c191 4bbd 7879 b1be
00000050: e041 ef3e 0467 12bd ec7c 71bd ce30 efbd
00000060: f267 43bd e2cc 34bd 98eb 323f 4c99 153f
00000070: 1263 a2bd 2a7c 8e3e 3366 54bd 89ac 15bd
00000080: e19e b9be ab4f cbbd 4f3f abbd 34e9 0fbd
00000090: 6c71 babd aab7 2fbd a0ca 4fbd 667b 6cbd
000000a0: cbe9 393b 3e18 58bc 2871 f9bc 0c34 52be
000000b0: f2cc 98bd 3ff3 32bd bd55 c8bc 1d17 d9bd
000000c0: b6aa adbe 95b3 9fbc 021c d8bd f63f 92bd
000000d0: 82c4 11bd d865 c73e 65ac f5bd b6f9 f4bc
000000e0: c605 e4bd ea29 8b3f 9b0c 76bd 68e2 61bc
000000f0: b0c5 cebd ecfc c7bd 3086 46bd caad 20bb
00000100: 5263 3cbd 38cf 7abc 55fd 0abc 5088 f9bd
00000110: 39f3 b4bd 4834 bf3e 0d4c 4fbd 025d b1bd
00000120: 69e8 49bd fd9f 27bd 977b 01be 3ac9 8e3e
00000130: 5437 c5bd 796b 69bd b3a2 153f db9f 12bd
00000140: 9c84 563e 568a bbbd 9dcd 88bd 0782 38bd
00000150: f125 74bd d796 52bd 9d05 56bd 357f a6bd
00000160: 32cc 61bd ccfc c2bd a55f 46bd f5c4 5cbd
00000170: 5ef7 aabd a2f3 a2bd ae44 29bb 8b3d 6abd
00000180: a90c 93bc c01b d4bd f9ab 65bd 508a c5bd
00000190: 5ad5 63bd b45f 1dbd 5e2f 56bd e649 dcbc
000001a0: 2750 a5bd c90e dcbd 1fb9 a43e 6cef 03be
000001b0: 844d 97bd d59c 6a3e 2137 91bd e33a 98bd
000001c0: f5af c73e 9a63 00be 5774 cbbc 83ac 83bd
000001d0: 272f 87bd 8ffd 1cbd 579e 8cbd fb31 edbc
000001e0: 4123 65bd 6ea4 0ebe 2f4a 06be d6d2 cfbd
000001f0: d071 f7bd 7673 30bd 02ee 12be 5cb7 51bd
00000200: 8988 adbd 8def edbd adba 17be f7e0 803f
00000210: 95b1 60bd 19b3 b5bd 1604 c4bd 23a7 bbbd
00000220: 5a4c 12bd 369d adbd e078 5fbc ab9d 0bbd
00000230: 796d c0bd 4428 e4bd 43c6 d6bd 96af eebd
00000240: f67d 03bd 10dd 4fbd 10d2 0fbe 0633 c0bd
00000250: 3561 14bd 5e23 cebd 9e07 babd ff64 e5bc
00000260: 96e6 cabd 0adc 87bd faad f9bd ba52 f4be
00000270: faf8 4dbc a1cf dcbd c194 eabd 3d8e aabd
00000280: 24ec 91be 26eb 4fbc f9f7 9cbd a14d e2bd
00000290: c023 8ebd 585d b4bd 32c9 e03e abe3 17bc
000002a0: 82a5 9b3e 565f acbd 496f f1bd 478a 83bd
000002b0: 55d5 e5bd 8225 7dbd b4d4 9bbd 82ae a4bd
000002c0: 72c1 0dbd 6086 c8bd bb94 d5bd 72e3 85bd
000002d0: 8c93 74bd 17dc a3bd 50f5 1f3e 4b7f 6ebd
000002e0: a43e 96bd 3f3e 80bd 7485 fabc 2fe2 8dbd
000002f0: a664 a1bd b6ff 253f 168b dbbd b14f 8fbe
00000300: 8639 abbd a35b a2bd c340 e9be 763a b7bc
00000310: 20e5 dcbc f753 85bd e1fa 42bd 5d46 3bbd
00000320: 9381 9fbd 5e3b ffbc 8cc7 22bb 074e c1be
00000330: eed8 f7bd 59de 73bd 07d6 cbbd 3074 17bd
00000340: 3c60 9ebd a139 40bd e351 2a3a 2fa2 81bd
00000350: c685 6cbd 5a5b 2fbd a5ca bebd 0aa6 94bd
00000360: 6c80 0fbd e51f c3bd 0743 d3bd 425c c3bd
00000370: f71c 76bd 3195 1c3e 55f8 06be 6fea 85bd
00000380: e899 6dbd 4cd1 a0bd 2b86 85bd 98e2 03be
00000390: 7f89 3d3f 5641 4cbd e341 90bc 1f2f 95bd
000003a0: f51b 25bd 4801 0dbe e0d9 60bd 9051 b03e
000003b0: d5b0 f5bd 5e16 a1bd edf6 e03e fdae 90bd
000003c0: e787 6abd 5ad6 9abd e587 69bd f25b 0fbd
000003d0: f9cf 28be af65 39bd 6309 7bbd a09f 6abd
000003e0: 03bd ebbc 9093 8fbc 7c98 3fbc 88b9 03be
000003f0: a8b6 18bd 63ac a6bc 8152 4b3f a4cb cbbd
-0.077067174 -0.052990373 -0.079918616 -0.041288707 -0.07466879 -0.11319204 -0.030278493 -0.11041293
0.6925427 -0.06701718 -0.12061039 -0.015626248 0.8953972 0.38389146 -0.04955446 0.0006599044
-0.07532473 -0.046318006 -0.04969955 -0.34662986 0.46729946 -0.035742775 -0.058957025 -0.11679231
-0.04770655 -0.044140704 0.6989074 0.5843704 -0.079290524 0.27829105 -0.051855277 -0.036541495
-0.36254027 -0.09927305 -0.083616845 -0.03513451 -0.09103665 -0.042899765 -0.050730348 -0.05773487
0.0028368111 -0.013189374 -0.030449465 -0.20527667 -0.07460965 -0.04368901 -0.024454946 -0.10600112
-0.33919305 -0.019494811 -0.10552217 -0.07141106 -0.035587795 0.38944888 -0.11995772 -0.029904228
-0.11133914 1.0872166 -0.060070615 -0.01378689 -0.100963 -0.09765038 -0.048467815 -0.002451765
-0.045993157 -0.015308194 -0.008483251 -0.12184203 -0.088354535 0.37344575 -0.050609637 -0.08660318
-0.04929391 -0.04092406 -0.12644802 0.278879 -0.096296936 -0.05698726 0.58451384 -0.03579698
0.20949024 -0.09157245 -0.066798426 -0.04504588 -0.059606496 -0.051413383 -0.052251447 -0.081297316
-0.055126376 -0.095208734 -0.048431057 -0.05389877 -0.08347963 -0.079566255 -0.002582829 -0.0571876
-0.017950373 -0.103568554 -0.05607221 -0.09645522 -0.05562339 -0.038421348 -0.052291267 -0.026890706
-0.080719285 -0.107450075 0.32172486 -0.12884301 -0.07387832 0.22911389 -0.07090593 -0.07433107
0.39001432 -0.12537995 -0.024835749 -0.064293884 -0.066007905 -0.03832775 -0.068661384 -0.028954497
-0.055941824 -0.13929912 -0.13114236 -0.10147636 -0.12082255 -0.043078862 -0.14348605 -0.051200256
-0.08473308 -0.11617956 -0.14817305 1.0068654 -0.054856855 -0.08872051 -0.09571092 -0.09162738
-0.035717346 -0.08477251 -0.013639659 -0.03408591 -0.0939588 -0.111404926 -0.10487034 -0.11654584
-0.032102548 -0.05074793 -0.14044976 -0.09384732 -0.036225516 -0.100653395 -0.09083484 -0.02800226
-0.09907262 -0.06633766 -0.121913865 -0.47719365 -0.012571568 -0.107817896 -0.11454154 -0.08327911
-0.28500473 -0.012690341 -0.076644845 -0.11049963 -0.069404125 -0.088068664 0.439035 -0.009270589
0.3039971 -0.084166214 -0.11788804 -0.06422859 -0.112223305 -0.06180335 -0.07608929 -0.08041097
-0.034608312 -0.09791255 -0.10428759 -0.065375224 -0.059711024 -0.08000963 0.15620923 -0.058226865
-0.073361665 -0.062618725 -0.030581214 -0.06927907 -0.07880525 0.6484331 -0.10719888 -0.27990487
-0.08360581 -0.079276346 -0.45557222 -0.022366744 -0.026964724 -0.06510156 -0.047602538 -0.0457214
-0.07788386 -0.031156238 -0.0024838177 -0.37754843 -0.12101923 -0.05953822 -0.09952932 -0.03697604
-0.07733199 -0.04692996 0.00064971874 -0.06329762 -0.057744764 -0.04281173 -0.09315995 -0.07258232
-0.035034582 -0.09527568 -0.10315519 -0.09539081 -0.060086217 0.15291287 -0.13180669 -0.06538855
-0.058008105 -0.0785242 -0.06519731 -0.12879407 0.7403793 -0.049866997 -0.017609542 -0.07284378
-0.040309865 -0.1377002 -0.05489528 0.34437227 -0.11996619 -0.07865594 0.4393839 -0.07064626
-0.057258513 -0.075604156 -0.057014365 -0.034999795 -0.16485585 -0.04526299 -0.06128825 -0.057281137
-0.028776651 -0.017526418 -0.01169407 -0.12863743 -0.03728357 -0.020345872 0.79422766 -0.09950951
